checkpoints/model_0120.tar (torch, 520175 bytes, 729 tensors)

exp_avg f4 [16, 3, 1, 5]
0	0xb728e152	-1.0066042e-05
1	0x38d35fd0	0.000100791105
2	0x3afec7a3	0.0019438158
3	0xb9be1d38	-0.00036261394
4	0xbaa31eac	-0.0012445054
5	0xba94df43	-0.0011358041
6	0x3a17ec83	0.0005795436
7	0x39578bee	0.00020556126
8	0x36b6eac4	5.451353e-06
9	0xb9ec44d3	-0.00045064706
10	0xba03ed87	-0.0005032648
11	0x39f00d2e	0.00045786187
12	0x3993afd3	0.00028169024
13	0x39799e34	0.00023805426
14	0x3915c13b	0.00014281731
15	0x39d8462c	0.00041251013
16	0x39456630	0.00018825452
17	0xbaf07001	-0.0018343927
18	0xba7eafe2	-0.00097155396
19	0x3a498dbc	0.00076886616
20	0x3aad0c32	0.0013202487
21	0xbb2ca89b	-0.0026345614
22	0x3ae6547f	0.0017572789
23	0x3a2fec33	0.00067109166
24	0xb8943393	-7.0667964e-05
25	0x398ee2cf	0.00027253336
26	0x3ac06eda	0.0014681474
27	0x3ab81515	0.0014044369
28	0xbb16c646	-0.0023006364
29	0x39cd2efb	0.0003913565
30	0xba8cc7b5	-0.001074067
31	0xbac9e276	-0.0015402574
32	0xb83f222a	-4.5569766e-05
33	0x39c29df2	0.00037120242
34	0xba12ab67	-0.0005594999
35	0x39d6b24c	0.00040950102
36	0x388aa18a	6.610442e-05
37	0xba1e375a	-0.00060354697
38	0xb69e8188	-4.7238464e-06
39	0x39a70aad	0.00031860676
40	0x3a61bd8a	0.00086113124
41	0x397d8bc8	0.00024180033
42	0xba0b5c53	-0.00053161866
43	0xba0f5066	-0.00054669974
44	0x3a9f56cf	0.0012156608
45	0xbb2f3ef4	-0.0026740404
46	0xbbf98d84	-0.007615747
47	0x3bbf3f3d	0.005836396
48	0x3b8df2d6	0.004331927
49	0xbad55d02	-0.0016278329
50	0x3a324e12	0.00068017945
51	0xbb68a8b6	-0.003550095
52	0xbb868bed	-0.004106036
53	0xba13277d	-0.0005613489
54	0x3b42854a	0.0029681497
55	0xbb685339	-0.0035449995
56	0x3c56107e	0.0130654555
57	0xbc754c29	-0.014971771
58	0x3bb9cbdb	0.0056700534
59	0xb9d4cb0b	-0.0004058707
60	0xbc65d526	-0.014027869
61	0xbba62351	-0.005070128
62	0xba8f11f8	-0.0010915389
63	0xbb631616	-0.0034650615
64	0xbc08e4ed	-0.008355361
65	0x3aa3de91	0.0012502243
66	0x39e2a385	0.0004322791
67	0xba1ce913	-0.00059856585
68	0xb963b194	-0.0002171456
69	0xbaa1a043	-0.0012331087
70	0x3b30bee3	0.0026969246
71	0xba819959	-0.000988762
72	0xb76bc5f5	-1.4053182e-05
73	0x3af98599	0.0019037008
74	0xbb76841d	-0.0037615367
75	0xba807d22	-0.0009802917
76	0x3a2a8a33	0.00065055786
77	0x39207810	0.00015303516
78	0xb9c0d154	-0.00036777055
79	0xb92ccb0f	-0.00016478843
80	0xba260e35	-0.00063345145
81	0x3a95079a	0.0011370063
82	0xb94bd92f	-0.00019440496
83	0xb79791ba	-1.8068462e-05
84	0xba4570cd	-0.0007531762
85	0x39c7b430	0.00038090488
86	0xbaa007dc	-0.0012209374
87	0x3ad0f976	0.0015943486
88	0xba4943d9	-0.00076776516
89	0x38b9149e	8.825328e-05
90	0xba7be4b8	-0.0009608972
91	0xba9e497a	-0.0012076341
92	0x3ae598e8	0.0017516883
93	0x3ab570f5	0.0013842868
94	0xba31ddb9	-0.00067850534
95	0x37298fd8	1.0106676e-05
96	0xba0e91d2	-0.0005438599
97	0xba4ce88b	-0.0007816634
98	0x394c6b7a	0.00019494994
99	0x39c86724	0.00038223818
100	0xba94b41d	-0.0011345182
101	0x3b188b35	0.0023276333
102	0xbb1b1b7e	-0.002366751
103	0x3a7e88af	0.00097096985
104	0xb9e70ee2	-0.00044070842
105	0xb9f90249	-0.00047494684
106	0xba474240	-0.00076011196
107	0x3a08811e	0.0005207228
108	0x3a0fb79e	0.0005482378
109	0xb8fd96e4	-0.00012092086
110	0x39b16cd9	0.0003384117
111	0xb985038d	-0.00025370382
112	0xba29ff0d	-0.0006484844
113	0x3a2b9969	0.0006545992
114	0xb7adbc26	-2.071082e-05
115	0x39ad8b40	0.0003310088
116	0x39bb4720	0.00035720412
117	0xb985c10d	-0.0002551157
118	0xba8649e1	-0.0010245406
119	0x3a9fb0d6	0.0012183439
120	0xb9fe9841	-0.00048560093
121	0x39e1d079	0.00043070668
122	0x3a7338b3	0.0009278163
123	0x3a209688	0.00061259465
124	0xb9fd2180	-0.0004828088
125	0xb8d6d005	-0.00010243062
126	0x3920943f	0.00015314015
127	0x394823ef	0.00019086873
128	0x38b8ebe9	8.8177454e-05
129	0x3a6443f6	0.0008707637
130	0x3a356b94	0.00069206324
131	0xb9ba546b	-0.0003553958
132	0x3a4dc711	0.00078497926
133	0xbaba4084	-0.0014209901
134	0xb9bddc4c	-0.00036213023
135	0xbb051331	-0.0020305628
136	0xbb4e4d43	-0.0031479157
137	0xba84c975	-0.001013084
138	0x3b00a695	0.001963054
139	0x3b36e4fc	0.0027907481
140	0x3af81304	0.0018926566
141	0x3ac7d0a7	0.0015244678
142	0x37d4989b	2.5343432e-05
143	0x3ab9659b	0.0014144661
144	0xbaeb3dd0	-0.0017947499
145	0x3bba5873	0.0056868135
146	0xbbbb67a5	-0.0057191425
147	0x3b745a29	0.0037285185
148	0xba679b86	-0.00088351255
149	0x3a91d2a9	0.0011125404
150	0xb8773b5f	-5.8944683e-05
151	0xb98c4237	-0.00026752215
152	0x3a490b2e	0.00076692074
153	0x3aa7cb31	0.0012801645
154	0x3ac83d32	0.0015277027
155	0x39a2d657	0.00031058743
156	0xba1dad1a	-0.0006014869
157	0xba86afd4	-0.001027579
158	0x3a803027	0.0009779976
159	0xba01075b	-0.00049220555
160	0x3a1c6837	0.0005966457
161	0xb975f04c	-0.00023454538
162	0x3a41f9bd	0.00073995796
163	0xbaebf3f3	-0.001800178
164	0x3a8a3afb	0.0010546142
165	0x3a41f789	0.00073992513
166	0xba549c74	-0.00081104715
167	0x3a263ff0	0.0006341925
168	0x3951452a	0.00019957559
169	0xb9dee2df	-0.00042512172
170	0xbb07b6d8	-0.0020708349
171	0x39db96ce	0.00041883293
172	0xba9d2fc6	-0.0011992387
173	0x398085d2	0.00024513766
174	0xb91e290c	-0.00015083345
175	0x3b0458ad	0.0020194456
176	0x3a9687ea	0.0011484597
177	0xba69c56f	-0.00089176645
178	0xba6a61ed	-0.00089409837
179	0xb8a84ca7	-8.025142e-05
180	0xbb471d9a	-0.0030382634
181	0xba32c2f2	-0.000681921
182	0x3aef5cec	0.0018261946
183	0xbad88935	-0.0016520383
184	0xbbaee842	-0.005337746
185	0xbb0cb013	-0.0021467253
186	0x399dd20d	0.00030101874
187	0xb888255b	-6.491943e-05
188	0x39bf94b8	0.00036541163
189	0xb832b18c	-4.260386e-05
190	0x3b53509c	0.0032244092
191	0x3a24b569	0.0006283136
192	0xb9873e47	-0.00025795607
193	0xbb5c126e	-0.003358032
194	0x3b14123a	0.0022593872
195	0xb82c9831	-4.1149735e-05
196	0xba4d21e5	-0.000782518
197	0x38dedd45	0.000106269996
198	0x3a744f14	0.0009319645
199	0x39c50d45	0.00037584655
200	0x3a4340bd	0.00074483064
201	0xb9bcb7f2	-0.00035995204
202	0xba79e67e	-0.0009532942
203	0x3a0695ba	0.00051340053
204	0xb923b241	-0.00015611296
205	0x3a94acea	0.0011343036
206	0x3add55d5	0.0016886542
207	0xbaa7d1f9	-0.0012803666
208	0xb93e2493	-0.00018133437
209	0x3a48c2b8	0.000765841
210	0x3acdb3ee	0.0015693882
211	0x3b6621fd	0.0035115473
212	0xbadbe857	-0.0016777617
213	0xba596e1e	-0.0008294302
214	0x390d78d3	0.00013491818
215	0xbb01a350	-0.001978118
216	0x3b315f1d	0.0027064749
217	0xb8fccce8	-0.00012054463
218	0x3aface85	0.0019135034
219	0xba2eae90	-0.0006663585
220	0xba730417	-0.0009270324
221	0xbab78c8e	-0.001400368
222	0x3b878f6e	0.004136971
223	0xbc087648	-0.008328982
224	0x3bdaf149	0.0066815955
225	0xbb0c7115	-0.0021429707
226	0xbb1fb0e9	-0.0024366921
227	0xba27530e	-0.00063829205
228	0x3ab20df3	0.001358448
229	0x3a90813a	0.0011024841
230	0xbac8e70b	-0.0015327645
231	0x3ac7bcbd	0.0015238744
232	0xba4233c5	-0.0007408227
233	0x3957a85a	0.00020566714
234	0xba556c6a	-0.000814146
235	0x3afbee2d	0.0019220762
236	0xba8ebf92	-0.0010890833
237	0x3a29d46c	0.00064784917
238	0xb9fcf46f	-0.00048247303
239	0x3a0e579c	0.0005429925

exp_avg_sq f4 [16, 3, 1, 5]
0	0x37c53a8b	2.3511491e-05
1	0x3798a946	1.8198636e-05
2	0x37ad5add	2.0665519e-05
3	0x37484adf	1.1938361e-05
4	0x37a30ef7	1.9438083e-05
5	0x3765fc6b	1.3708234e-05
6	0x3747c789	1.1907782e-05
7	0x3795c9a6	1.7856084e-05
8	0x370a3284	8.237203e-06
9	0x36aefdc5	5.2151468e-06
10	0x373c6445	1.1229019e-05
11	0x37477201	1.1887868e-05
12	0x37524f6b	1.2535466e-05
13	0x36d60008	6.3777006e-06
14	0x36a422ee	4.891647e-06
15	0x3992d822	0.00028008322
16	0x39140289	0.00014115324
17	0x39711f9a	0.00022995324
18	0x3a756462	0.00093609665
19	0x39cc6f47	0.0003899282
20	0x38f9cecd	0.00011911765
21	0x3825cac6	3.9527913e-05
22	0x387d74eb	6.042879e-05
23	0x38909c9d	6.8956266e-05
24	0x38143d5a	3.5343088e-05
25	0x38cca212	9.757666e-05
26	0x382278d5	3.8736343e-05
27	0x37bb3902	2.2318683e-05
28	0x3898cb4c	7.285792e-05
29	0x3819f6a3	3.670774e-05
30	0x38f39ff4	0.000116169365
31	0x38558fc9	5.0917068e-05
32	0x38ff47d9	0.0001217273
33	0x36d913a9	6.4693927e-06
34	0x392205ef	0.00015451734
35	0x37b0846e	2.1042502e-05
36	0x36517fee	3.1217892e-06
37	0x37d1141a	2.4924102e-05
38	0x36952524	4.44487e-06
39	0x3837df94	4.3838823e-05
40	0x37878c80	1.615868e-05
41	0x3619b74b	2.2905467e-06
42	0x37837783	1.5672069e-05
43	0x3682023a	3.874561e-06
44	0x384f83bd	4.9475337e-05
45	0x3aa5ad45	0.0012640139
46	0x3ac8be6f	0.0015315543
47	0x3bee74e0	0.007277116
48	0x3a2cae9f	0.00065873
49	0x3b5888d7	0.0033040547
50	0x3a3c4de2	0.00071832363
51	0x3b24e3f8	0.0025160294
52	0x3bdd5dd7	0.0067555713
53	0x3b099c8f	0.0020997857
54	0x3961a342	0.0002151849
55	0x39f84599	0.000473541
56	0x3b34d3ee	0.002759214
57	0x3bc791de	0.006090387
58	0x3b0b5fa9	0.0021266735
59	0x39721ac3	0.00023088888
60	0x3ae66720	0.0017578341
61	0x39b6b70b	0.00034850123
62	0x3780cf94	1.535545e-05
63	0x38dd7547	0.00010559946
64	0x3a66f3cc	0.0008810132
65	0x3a0e34bf	0.000542473
66	0x38bd850d	9.037005e-05
67	0x3755fc3f	1.275452e-05
68	0x378b3795	1.6595974e-05
69	0x38bd8727	9.0373964e-05
70	0x395cb811	0.00021049405
71	0x384a1616	4.8181122e-05
72	0x36fb5120	7.489827e-06
73	0x37880ab1	1.6217442e-05
74	0x38cf964e	9.8985256e-05
75	0x3818e8d8	3.6456477e-05
76	0x37b1aa50	2.1179352e-05
77	0x3824bf8e	3.9279046e-05
78	0x3759511b	1.2953092e-05
79	0x37ef8412	2.855252e-05
80	0x375ecb24	1.32795285e-05
81	0x37b41974	2.1469525e-05
82	0x3887f418	6.482768e-05
83	0x3810585b	3.4414563e-05
84	0x37bd40a6	2.256066e-05
85	0x3730f92d	1.0548433e-05
86	0x37c703a5	2.3724346e-05
87	0x3863cff7	5.43147e-05
88	0x3812c268	3.4990167e-05
89	0x37c072e7	2.294169e-05
90	0x385510ab	5.079868e-05
91	0x38adf0c9	8.2941326e-05
92	0x39a16145	0.00030780784
93	0x38253292	3.9386163e-05
94	0x3894aff4	7.089964e-05
95	0x3843c837	4.6678088e-05
96	0x38d77157	0.0001027311
97	0x397c0ed2	0.00024038114
98	0x38a7dba6	8.004093e-05
99	0x373c2f66	1.1216709e-05
100	0x380f0c9d	3.4105604e-05
101	0x38ea1608	0.00011162093
102	0x39607578	0.00021406065
103	0x38a94e20	8.0731e-05
104	0x3748736d	1.1947804e-05
105	0x37d74b17	2.5664964e-05
106	0x38b1950b	8.467779e-05
107	0x3961d38d	0.00021536481
108	0x3874003c	5.817435e-05
109	0x3833efeb	4.2900367e-05
110	0x37a8d6d4	2.0127198e-05
111	0x368214ab	3.876708e-06
112	0x37bd339a	2.2554585e-05
113	0x375e65c5	1.3255926e-05
114	0x388280ff	6.2229105e-05
115	0x3782c0af	1.5586933e-05
116	0x362164da	2.4049573e-06
117	0x3756a5cf	1.2793999e-05
118	0x37615e87	1.3433054e-05
119	0x3890bc37	6.901513e-05
120	0x37449909	1.1718142e-05
121	0x374fba4e	1.2381539e-05
122	0x38a2de6b	7.7661905e-05
123	0x38adca52	8.286968e-05
124	0x3897650d	7.219063e-05
125	0x3712b46a	8.744284e-06
126	0x374f5aad	1.2359274e-05
127	0x3800d3ac	3.0714713e-05
128	0x378f96b7	1.711711e-05
129	0x373a04eb	1.1087609e-05
130	0x36e591e7	6.841717e-06
131	0x37616fc3	1.3437067e-05
132	0x37d91ce6	2.5881873e-05
133	0x37941d70	1.7656683e-05
134	0x3744dee6	1.1734408e-05
135	0x3a8bd6bd	0.0010668855
136	0x3a5a3cf1	0.0008325121
137	0x3980ca26	0.00024564675
138	0x3990c090	0.0002760929
139	0x3a4f2881	0.0007902459
140	0x3a8b5833	0.0010631144
141	0x3a714ba7	0.00092046935
142	0x3a4b6fdb	0.0007760503
143	0x399d8b74	0.00030049274
144	0x38daefb3	0.000104396975
145	0x3a617126	0.0008599929
146	0x3a7e1510	0.00096924696
147	0x3a44c8fe	0.0007506757
148	0x39a3c4d5	0.00031236434
149	0x38f95711	0.000118894626
150	0x36e12123	6.70938e-06
151	0x38052051	3.1739768e-05
152	0x394b0195	0.00019360178
153	0x395f2f80	0.00021284632
154	0x390f8c2f	0.00013689765
155	0x3788d30e	1.6310743e-05
156	0x36a57781	4.9312953e-06
157	0x38be00b6	9.0600384e-05
158	0x38116574	3.466518e-05
159	0x38066272	3.2039774e-05
160	0x375054ab	1.2417479e-05
161	0x36ab3f16	5.1035413e-06
162	0x36de6301	6.627641e-06
163	0x37f4b0fb	2.916948e-05
164	0x38156c7e	3.562541e-05
165	0x39527b1f	0.00020073027
166	0x3850866e	4.9716262e-05
167	0x37ca1a82	2.409262e-05
168	0x378fbe0f	1.7135431e-05
169	0x3889d7dd	6.572877e-05
170	0x38150653	3.5530258e-05
171	0x37c6ecc2	2.3713688e-05
172	0x382c2574	4.1042877e-05
173	0x37f57d9e	2.9264771e-05
174	0x37f05250	2.864856e-05
175	0x37df9013	2.6650761e-05
176	0x37be39dc	2.2676708e-05
177	0x38023b15	3.104944e-05
178	0x38034a2f	3.1301923e-05
179	0x37fb302d	2.9943965e-05
180	0x39e1ddca	0.0004308059
181	0x3889a9ce	6.564298e-05
182	0x3805b38f	3.1876898e-05
183	0x39588b5c	0.0002065128
184	0x398da478	0.00027016154
185	0x38c47a1f	9.368755e-05
186	0x37ef8a22	2.8555343e-05
187	0x3827fd3f	4.0051757e-05
188	0x3836c322	4.3573913e-05
189	0x3868059a	5.5318327e-05
190	0x38acde96	8.243059e-05
191	0x37c7ead7	2.3832004e-05
192	0x37c0ac55	2.2968432e-05
193	0x384526c6	4.700457e-05
194	0x3864a66d	5.4514432e-05
195	0x39b78117	0.0003500066
196	0x389dc186	7.52239e-05
197	0x39b1d2e0	0.00033917185
198	0x38bc203f	8.970545e-05
199	0x37ce6067	2.4602004e-05
200	0x38bb84aa	8.9415655e-05
201	0x373cae4f	1.1246258e-05
202	0x38a4d865	7.860436e-05
203	0x372c1c15	1.0258537e-05
204	0x37773fc2	1.4737192e-05
205	0x38966863	7.172001e-05
206	0x37066036	8.009423e-06
207	0x387f647b	6.0890317e-05
208	0x370b9288	8.319163e-06
209	0x37855cc7	1.5898038e-05
210	0x3a942ab8	0.0011304235
211	0x39f20ad3	0.00046165902
212	0x39bfc27f	0.0003657527
213	0x39d96047	0.00041461198
214	0x3aa26da2	0.0012392292
215	0x3903d96c	0.0001257413
216	0x390d2196	0.0001345932
217	0x3a26324c	0.0006339892
218	0x3a850c31	0.0010150728
219	0x3a8ac774	0.0010588006
220	0x387cb788	6.025241e-05
221	0x391447d8	0.00014141144
222	0x39e681f4	0.0004396584
223	0x3a90b37b	0.0011039817
224	0x3a9a27f3	0.0011761173
225	0x38ad2ceb	8.2576495e-05
226	0x39194095	0.00014615276
227	0x38a0a949	7.660926e-05
228	0x37f6a5d2	2.9402701e-05
229	0x3863085f	5.4128814e-05
230	0x380134e1	3.0805244e-05
231	0x381fbf15	3.8086513e-05
232	0x38448956	4.6857946e-05
233	0x371bdaaf	9.289636e-06
234	0x36fe10c9	7.571744e-06
235	0x37d083ee	2.4856967e-05
236	0x382b750f	4.0878596e-05
237	0x381dd1e4	3.7627193e-05
238	0x36fcbdfb	7.532302e-06
239	0x37028522	7.779601e-06

exp_avg f4 [16]
0	0xb09811c2	-1.1064503e-09
1	0x2ecac58b	9.220987e-11
2	0x2fbcfead	3.437796e-10
3	0xaf83f887	-2.400535e-10
4	0x2e8f64e6	6.52081e-11
5	0x31101c1c	2.0970736e-09
6	0xb09282ef	-1.0660112e-09
7	0x309ef08c	1.1564381e-09
8	0xb31e55e7	-3.686537e-08
9	0xb09867aa	-1.1088919e-09
10	0xb2a585fd	-1.9269459e-08
11	0x3406ba29	1.2547447e-07
12	0xb351caf5	-4.8846193e-08
13	0x30dfed50	1.6292834e-09
14	0xb0cc1e52	-1.4851571e-09
15	0x32de6f17	2.589472e-08

exp_avg_sq f4 [16]
0	0x24e58126	9.9531705e-17
1	0x238b5e31	1.5110302e-17
2	0x24493d45	4.3636825e-17
3	0x23cd34c1	2.2248487e-17
4	0x25801a96	2.2222476e-16
5	0x253867c0	1.5994608e-16
6	0x24a76c8a	7.260858e-17
7	0x22dd8f18	6.0053676e-18
8	0x2862e687	1.2595508e-14
9	0x23996e17	1.6634918e-17
10	0x26ffeabf	1.7757808e-15
11	0x293056a0	3.9154986e-14
12	0x2a55f3ea	1.9002825e-13
13	0x26afb0a8	1.2190947e-15
14	0x25e99281	4.0518332e-16
15	0x28a7c898	1.8627718e-14

exp_avg f4 [16]
0	0xbae27681	-0.0017277749
1	0x3b1428fc	0.0022607436
2	0x39609b7f	0.00021420231
3	0x3ccba499	0.02485876
4	0x383980c0	4.4227345e-05
5	0x3ab1460b	0.0013524903
6	0xbab3fc65	-0.0013731836
7	0xbb0e2306	-0.0021688356
8	0xbbc5c39c	-0.0060352813
9	0x39735bc2	0.00023208468
10	0xbbba7887	-0.0056906375
11	0xbb8899b4	-0.0041687135
12	0x3c3b87e7	0.011445976
13	0xbb45325d	-0.0030089833
14	0xbab64f65	-0.001390916
15	0x3bcfaad5	0.0063375034

exp_avg_sq f4 [16]
0	0x3a972811	0.0011532326
1	0x3c10945e	0.008824436
2	0x39e8ba85	0.00044389456
3	0x3df526fd	0.11970327
4	0x399937e3	0.00029224073
5	0x3a6bc6a3	0.0008994138
6	0x3b3b931d	0.0028621622
7	0x3a13eded	0.00056430587
8	0x3a468c82	0.0007574038
9	0x3cef3806	0.029201519
10	0x3a705814	0.0009168398
11	0x3a995926	0.0011699542
12	0x3a5f81ae	0.00085260987
13	0x39e0e1cb	0.00042892838
14	0x3ce40c2e	0.027837839
15	0x3a798a12	0.000951917

exp_avg f4 [16]
0	0xbbea389a	-0.0071478607
1	0x3a176700	0.0005775541
2	0x3af93be1	0.0019015038
3	0x3b39fc1f	0.0028379036
4	0x3b4d0f63	0.0031289689
5	0x3ab208db	0.0013582961
6	0x3b041f34	0.00201602
7	0x38aa1c5f	8.111516e-05
8	0xbc734c18	-0.014849685
9	0xb957e3c4	-0.00020588847
10	0xbbab842b	-0.0052342615
11	0xbca0d05d	-0.019630605
12	0x3d391404	0.045185104
13	0x39d3bfc0	0.0004038792
14	0xbab345c6	-0.001367741
15	0x3c2ceffe	0.0105552655

exp_avg_sq f4 [16]
0	0x3a64459c	0.00087078824
1	0x38cb9dc0	9.7091775e-05
2	0x3aea26c6	0.0017864339
3	0x3b8f2801	0.0043687825
4	0x3a604f40	0.0008556731
5	0x3ae8daa5	0.0017765356
6	0x3b9b7784	0.004744472
7	0x39df0813	0.0004253989
8	0x3b59a7ed	0.0033211664
9	0x3a194347	0.0005846512
10	0x3b90c5d9	0.0044181165
11	0x3b92bf95	0.0044784048
12	0x3bd4d777	0.006495412
13	0x3a923e5d	0.0011157502
14	0x3a471cdc	0.0007595548
15	0x3ba813f5	0.005129332

exp_avg f4 [16, 8, 1, 5]
0	0xb9381418	-0.00017555093
1	0xb8b9aee7	-8.8540655e-05
2	0x38442825	4.676743e-05
3	0xb9575008	-0.00020533812
4	0xb9019c1a	-0.00012360551
5	0xb7c01b71	-2.2900962e-05
6	0x38bac1bb	8.905256e-05
7	0xb8c314f2	-9.302226e-05
8	0x3909362b	0.00013085517
9	0x3a51ca05	0.00080028205
10	0x39450dc9	0.0001879252
11	0x399c1e29	0.0002977711
12	0x39716e84	0.00023024721
13	0x380c2ff6	3.3423268e-05
14	0x3818068c	3.624572e-05
15	0x3a1657fb	0.0005735156
16	0x3a2d57cc	0.0006612509
17	0x3a53b9c8	0.0008076695
18	0x3acb47e5	0.0015509097
19	0x3acf8fa5	0.0015835656
20	0xba4551e9	-0.0007527159
21	0x3a3ffcf5	0.00073237653
22	0x3a811944	0.0009849449
23	0x3909cbf4	0.00013141317
24	0xb65ea137	-3.3174417e-06
25	0xb87a5e4e	-5.9692473e-05
26	0x3a525a3e	0.00080243114
27	0x3a83b1f2	0.0010047539
28	0x3a11d4e5	0.0005563035
29	0xb684d6d5	-3.9589163e-06
30	0x39bbae47	0.00035797266
31	0x39c3d6e1	0.00037353396
32	0x39cd4dc9	0.000391586
33	0x39b62eb3	0.0003474854
34	0x38a43af0	7.831107e-05
35	0x38429712	4.63939e-05
36	0x3801ce61	3.0948202e-05
37	0xb68b1d0a	-4.1459034e-06
38	0xb8623a80	-5.393708e-05
39	0xb8e5d23c	-0.0001095873
40	0xb933dec2	-0.00017153754
41	0xb93e843b	-0.00018169072
42	0xb8ba0019	-8.869189e-05
43	0xb8ff67df	-0.00012178695
44	0xb92f7c2d	-0.0001673556
45	0x390ff8f5	0.00013730286
46	0x39bef102	0.0003641919
47	0x38ab96e4	8.182021e-05
48	0x3967d9e8	0.00022111053
49	0xb91e33aa	-0.000150873
50	0xb7b4aeed	-2.1539128e-05
51	0xb692a048	-4.3697983e-06
52	0xb6cd183b	-6.112297e-06
53	0x37d1cdba	2.501054e-05
54	0xb8730e2e	-5.794892e-05
55	0x39f12142	0.0004599188
56	0x3a27d2ba	0.0006401945
57	0x3950d514	0.00019915804
58	0x390c240b	0.00013364867
59	0xb674125b	-3.6369518e-06
60	0xb76f87a9	-1.4277096e-05
61	0xb90b75cc	-0.00013299956
62	0x389fe567	7.62444e-05
63	0x386bacde	5.618936e-05
64	0xb972befa	-0.00023150063
65	0xb853b30e	-5.0473078e-05
66	0xb7da1849	-2.5998934e-05
67	0x37b7d7d8	2.191581e-05
68	0xb7a6daeb	-1.9890684e-05
69	0xb912e368	-0.0001400836
70	0xb836354d	-4.344182e-05
71	0xb611c948	-2.1723845e-06
72	0x36ba85d2	5.5588107e-06
73	0x370486fe	7.899243e-06
74	0xb854dbe3	-5.0749524e-05
75	0xb8312ceb	-4.224192e-05
76	0xb89f8f8f	-7.608451e-05
77	0x36c95664	6.000324e-06
78	0xb8361f69	-4.3421434e-05
79	0x37ab22d3	2.0401005e-05
80	0x3c48ab05	0.0122478055
81	0x3c490111	0.012268321
82	0x3bfc16d2	0.00769315
83	0x3c01adf9	0.0079150135
84	0x3c0ebd9b	0.008712198
85	0xbc28573e	-0.010274706
86	0xbc3652b3	-0.0111281155
87	0xbc3dc6ff	-0.011583089
88	0xbc233400	-0.009961128
89	0xbc035f09	-0.008018264
90	0x3aedd3df	0.0018144808
91	0x3b0247f6	0.0019879318
92	0x3ada0ee8	0.0016636522
93	0x3ab9dd0a	0.0014180255
94	0x3aef8512	0.0018273911
95	0xbc98e5c2	-0.018664245
96	0xbcb6d085	-0.022316227
97	0xbc9f618f	-0.0194557
98	0xbc8df23f	-0.017327426
99	0xbc8b0051	-0.016967924
100	0x3bb38289	0.0054782075
101	0x3b55af47	0.0032605694
102	0x3b615b2f	0.0034386625
103	0x3948e7b1	0.00019159798
104	0x3b77d7cb	0.0037817832
105	0x3bec0bd0	0.0072035566
106	0x3bb1e765	0.0054291957
107	0x3b67a451	0.0035345743
108	0x3b4aaaca	0.0030924552
109	0x3b8528dc	0.0040637087
110	0x3b390dee	0.0028237063
111	0x3b2bc8ba	0.0026212172
112	0x3b00efe5	0.0019674238
113	0x3b18faaa	0.0023342767
114	0x3b09ddfc	0.0021036854
115	0x3af2c3ea	0.0018521522
116	0x3b295836	0.0025839931
117	0x3ae09412	0.0017133972
118	0x3af4d16c	0.0018678135
119	0x3ae81699	0.001770693
120	0xb886a5fb	-6.420534e-05
121	0xb88ee829	-6.814331e-05
122	0x36d55402	6.3576745e-06
123	0x385917cb	5.175899e-05
124	0x384c80aa	4.8757218e-05
125	0x389976d2	7.3177405e-05
126	0x39140701	0.00014116989
127	0xb912629b	-0.00013960378
128	0xb8466c98	-4.7308014e-05
129	0xb8756954	-5.8510646e-05
130	0xb7ec3f86	-2.8162973e-05
131	0x36e7c8bc	6.907705e-06
132	0x36d8b888	6.458784e-06
133	0x3686da62	4.0189343e-06
134	0xb5273d0d	-6.230119e-07
135	0x3941c868	0.00018480571
136	0x38bf09ba	9.1094014e-05
137	0xb96f210e	-0.0002280513
138	0xb907e37d	-0.00012959349
139	0xb914a113	-0.00014174385
140	0xb8b73bfe	-8.7372944e-05
141	0xb82dab8a	-4.1406172e-05
142	0x3817e4aa	3.6214165e-05
143	0x381d7d2b	3.754829e-05
144	0xb8021b13	-3.101963e-05
145	0xb89c1719	-7.442962e-05
146	0xb7ff62bc	-3.0444346e-05
147	0x378227f6	1.5515816e-05
148	0x3728c768	1.0060008e-05
149	0xb641d89a	-2.888532e-06
150	0xb7feb1ca	-3.0361949e-05
151	0xb7d151f7	-2.495291e-05
152	0x3620f7cf	2.3986101e-06
153	0x376e3e7b	1.4200453e-05
154	0xb635db71	-2.7098833e-06
155	0xb7640833	-1.3591768e-05
156	0xb785b012	-1.5936825e-05
157	0x37bacd14	2.2268425e-05
158	0x35e9cbee	1.7419204e-06
159	0x37aafe6b	2.0384052e-05
160	0x3af0dd30	0.0018376466
161	0x3afb9f0e	0.0019197182
162	0x3a94826b	0.0011330371
163	0x3a9778c8	0.0011556381
164	0x3b086a31	0.0020815248
165	0x39b6d899	0.00034875123
166	0x39ae6827	0.00033265466
167	0xb84f40f1	-4.9413127e-05
168	0xba27fde5	-0.00064083777
169	0xba986203	-0.001162589
170	0x399774b3	0.00028887912
171	0x396f4ed9	0.00022822189
172	0x39a09579	0.00030628944
173	0x39ad1185	0.00033010184
174	0x3a0152ec	0.0004933316
175	0xb9b0e28f	-0.00033738135
176	0x3950f9f0	0.00019929535
177	0x380dceb3	3.3809523e-05
178	0xb9fd2d46	-0.00048289652
179	0xbb09b4b2	-0.0021012244
180	0x3a8f6e2a	0.0010942866
181	0x3aaa9c83	0.0013016615
182	0x39b7df60	0.00035070907
183	0x3aa88616	0.0012857344
184	0x3a5ff024	0.00085425586
185	0x3a832cb5	0.001000783
186	0x3a9cc235	0.0011959734
187	0x3a912e53	0.0011076428
188	0x3a8dfb16	0.0010832276
189	0x3aaaf0ad	0.0013041698
190	0x39e29f62	0.0004322483
191	0x39e4cf51	0.00043642012
192	0x39e60467	0.000438723
193	0x39e51d82	0.0004370027
194	0x3a20e3e8	0.00061374763
195	0x38ed5f47	0.000113187874
196	0x383effa7	4.5537625e-05
197	0x3910d50e	0.00013812279
198	0x390cf08a	0.00013441048
199	0x39c96e6c	0.00038419978
200	0x3aece9f6	0.0018075097
201	0x3ab3767c	0.0013691927
202	0x3a12b0fb	0.000559583
203	0x3a6b78e2	0.00089825515
204	0x3b1d4f9f	0.0024003757
205	0xba8e3799	-0.001085031
206	0xba15785c	-0.0005701834
207	0xba0d7808	-0.0005396609
208	0xba97f011	-0.0011591931
209	0xbaed50bd	-0.0018105727
210	0x396ebdea	0.00022768197
211	0x38dd68ca	0.0001055762
212	0x393b28e0	0.00017848937
213	0x39aec40b	0.0003333393
214	0x3a14b96b	0.00056733814
215	0xbb024c94	-0.001988207
216	0xbab0f909	-0.0013501953
217	0xba9364ed	-0.0011245288
218	0xbb10a3dd	-0.0022070326
219	0xbb7f8778	-0.0038990658
220	0x3ab76ec5	0.0013994804
221	0x39d3e4ee	0.00040415622
222	0x39a20509	0.000309028
223	0x398f4cec	0.00027332397
224	0x3a810392	0.0009842983
225	0x3aa7a4c7	0.0012790196
226	0x3a445825	0.0007489941
227	0x39e6341a	0.00043907837
228	0x3a315eaf	0.0006766123
229	0x3aa64729	0.0012686002
230	0x39b2981c	0.00034064136
231	0x39a29cc0	0.00031015836
232	0x39387a10	0.00017593079
233	0x3981ffef	0.00024795483
234	0x3a07d094	0.0005180922
235	0x39444ac2	0.00018719866
236	0x3914185a	0.00014123452
237	0x3920f6b2	0.0001535069
238	0x3997ebea	0.00028976734
239	0x39e8ebe8	0.00044426252
240	0xba8f1b85	-0.0010918236
241	0xba5d6f0e	-0.00084470294
242	0x390854aa	0.0001300151
243	0xba7b120f	-0.0009577581
244	0xba7f5b80	-0.00097411126
245	0xba17f955	-0.0005797346
246	0xba7d9daa	-0.0009674678
247	0xb9f12473	-0.0004599426
248	0xba7f569b	-0.0009740383
249	0xba8cf474	-0.0010754005
250	0xb8741598	-5.8194244e-05
251	0xb592dac4	-1.0941517e-06
252	0xb8133df5	-3.5105233e-05
253	0xb717fa6a	-9.058605e-06
254	0xb7f75bfa	-2.9487524e-05
255	0xba31c3f6	-0.00067812146

exp_avg_sq f4 [16, 8, 1, 5]
0	0x381682cf	3.5884612e-05
1	0x37abc80b	2.047794e-05
2	0x382040c8	3.8207305e-05
3	0x3883e190	6.288581e-05
4	0x38b66d64	8.698812e-05
5	0x37ecddc7	2.8236665e-05
6	0x36b515d6	5.3967624e-06
7	0x36618e07	3.3610283e-06
8	0x3782e191	1.5602245e-05
9	0x3833a504	4.283061e-05
10	0x3568c76c	8.671693e-07
11	0x35768410	9.183432e-07
12	0x35caca4c	1.5109049e-06
13	0x36045838	1.9720883e-06
14	0x3694be7c	4.432919e-06
15	0x382b7b83	4.0884606e-05
16	0x3739e465	1.10800365e-05
17	0x37a3a37c	1.9507243e-05
18	0x3882287b	6.206423e-05
19	0x3965c3b4	0.00021912047
20	0x3791c3b0	1.7376471e-05
21	0x372b74b4	1.0219566e-05
22	0x37fe9d01	3.035227e-05
23	0x37fe6eed	3.0330813e-05
24	0x381bdd88	3.7161197e-05
25	0x37d0e2db	2.490117e-05
26	0x37ad8723	2.0686135e-05
27	0x380b63be	3.3233075e-05
28	0x38157cc5	3.564057e-05
29	0x382e4992	4.155335e-05
30	0x366f6c6f	3.5676892e-06
31	0x3636fddb	2.7267877e-06
32	0x3654de4e	3.171986e-06
33	0x3675787a	3.6577972e-06
34	0x36b5a51b	5.413441e-06
35	0x34c9d2ee	3.759264e-07
36	0x342e7c27	1.6250179e-07
37	0x34e078ca	4.1811137e-07
38	0x357b2913	9.356456e-07
39	0x3653938c	3.1527334e-06
40	0x361e12df	2.355482e-06
41	0x35e4cd05	1.7046992e-06
42	0x358420f7	9.84436e-07
43	0x35abb4a1	1.2793063e-06
44	0x36006bd1	1.9136244e-06
45	0x36db6943	6.5389627e-06
46	0x375d848d	1.3203488e-05
47	0x3798fabb	1.8236567e-05
48	0x37cc8243	2.4379353e-05
49	0x3733723a	1.0695827e-05
50	0x34974f70	2.818374e-07
51	0x35058faf	4.975545e-07
52	0x35353b30	6.7513884e-07
53	0x34a8832e	3.1387884e-07
54	0x33e58f04	1.0689658e-07
55	0x37e6dc7d	2.752081e-05
56	0x386a9404	5.5927798e-05
57	0x389c9575	7.466498e-05
58	0x3877fceb	5.9124937e-05
59	0x37a04243	1.9104342e-05
60	0x357706a6	9.2024345e-07
61	0x358c977c	1.0474901e-06
62	0x35a49c6d	1.2264478e-06
63	0x35e6425a	1.7155646e-06
64	0x35fd7cb7	1.8886266e-06
65	0x353f6863	7.130495e-07
66	0x34a6d583	3.107526e-07
67	0x33e929a2	1.0857481e-07
68	0x347e4174	2.3679405e-07
69	0x3534ddd9	6.7378056e-07
70	0x349582be	2.784854e-07
71	0x35033de0	4.8891343e-07
72	0x351ffd36	5.9600586e-07
73	0x3541668f	7.2047345e-07
74	0x3489f5be	2.569704e-07
75	0x3497452e	2.8176277e-07
76	0x353b2bf2	6.972688e-07
77	0x35338833	6.688089e-07
78	0x34fe44a9	4.7361144e-07
79	0x34055005	1.2415701e-07
80	0x3a9f2605	0.0012142068
81	0x3aada4d1	0.0013247972
82	0x3ac1ec0e	0.0014795081
83	0x3aac9a7b	0.0013168597
84	0x3a907a52	0.0011022782
85	0x3ac7a45b	0.0015231477
86	0x3a1d084e	0.0005990312
87	0x3aa6fdd4	0.0012740442
88	0x3b233bab	0.002490739
89	0x3a5559ce	0.0008138687
90	0x37c19bcc	2.3079941e-05
91	0x38304af5	4.203148e-05
92	0x38b4cac1	8.620835e-05
93	0x37ea0fce	2.7902333e-05
94	0x384bbac6	4.8572918e-05
95	0x3b360be6	0.0027778088
96	0x3b3d8d6a	0.00289234
97	0x3bbf336f	0.005834989
98	0x3b9231db	0.0044615096
99	0x3b6c6d91	0.003607605
100	0x39cb5277	0.00038780618
101	0x39dc830b	0.00042059305
102	0x3a3374cf	0.0006845714
103	0x39f5d24b	0.00046886722
104	0x399fa6ac	0.00030451023
105	0x39d849cf	0.00041253722
106	0x39e2720d	0.00043191054
107	0x3a0d70ca	0.000539553
108	0x39f3c36c	0.00046494172
109	0x39db49a3	0.000418258
110	0x3888ed72	6.529213e-05
111	0x38714d56	5.7530902e-05
112	0x38a7d7f7	8.003407e-05
113	0x38ccf4c6	9.7730706e-05
114	0x38951af8	7.109897e-05
115	0x37c48b50	2.3429893e-05
116	0x382a6166	4.0621868e-05
117	0x3862120f	5.3899417e-05
118	0x380f6d4d	3.419565e-05
119	0x3858246e	5.153234e-05
120	0x34b4032d	3.3529923e-07
121	0x340ce9a1	1.312351e-07
122	0x331a9737	3.5993448e-08
123	0x33da63a5	1.0169541e-07
124	0x34675a14	2.1546322e-07
125	0x3517b25b	5.6511425e-07
126	0x35c7103d	1.4831381e-06
127	0x36b4dd56	5.390185e-06
128	0x3693973c	4.3985474e-06
129	0x35297bab	6.3137367e-07
130	0x332022b2	3.7284458e-08
131	0x34324bdf	1.6605144e-07
132	0x3417c953	1.4136212e-07
133	0x32c6c8a1	2.314147e-08
134	0x3251bb12	1.2207936e-08
135	0x362ef792	2.6072125e-06
136	0x373b045c	1.1147084e-05
137	0x37882ebe	1.623423e-05
138	0x36d0f9f6	6.2279823e-06
139	0x359995f6	1.1443033e-06
140	0x34398e89	1.7281322e-07
141	0x343328a4	1.6685459e-07
142	0x3456a359	1.9989729e-07
143	0x34da8da3	4.0708719e-07
144	0x3431d74a	1.6562731e-07
145	0x3414d3a8	1.3860574e-07
146	0x33e3bf9f	1.0605367e-07
147	0x33cba101	9.4822106e-08
148	0x337ac6e5	5.8388554e-08
149	0x33c22283	9.0401066e-08
150	0x331abd95	3.6028343e-08
151	0x33a84bd0	7.8369e-08
152	0x34247b85	1.5318626e-07
153	0x3415bd9f	1.394569e-07
154	0x330a4f3d	3.2202696e-08
155	0x3338332a	4.2887372e-08
156	0x34269cd1	1.5517004e-07
157	0x33e66223	1.07280606e-07
158	0x3323a7a4	3.8103863e-08
159	0x3237714e	1.06777645e-08
160	0x391e3ce9	0.00015090745
161	0x39263d29	0.00015853778
162	0x376df04b	1.4182248e-05
163	0x385e6e41	5.3031607e-05
164	0x38d7c440	0.00010288553
165	0x38049f79	3.1619773e-05
166	0x37e4a364	2.7255803e-05
167	0x3685d816	3.9888646e-06
168	0x375fb31c	1.3333538e-05
169	0x381ae967	3.6933834e-05
170	0x35003219	4.775662e-07
171	0x34fc4a9f	4.6992952e-07
172	0x351da177	5.872202e-07
173	0x3599fad9	1.1472395e-06
174	0x368ce270	4.198686e-06
175	0x375c75a0	1.3140409e-05
176	0x374f0c18	1.2340977e-05
177	0x37597a1a	1.2962637e-05
178	0x38457990	4.7081674e-05
179	0x395e78c1	0.00021216554
180	0x382edcca	4.169046e-05
181	0x3842dfee	4.6461755e-05
182	0x36f4d4bd	7.2965327e-06
183	0x37a12e48	1.9214247e-05
184	0x3807ff2a	3.242415e-05
185	0x37f80a8d	2.9568817e-05
186	0x38075af4	3.2271215e-05
187	0x371f5e7b	9.4991365e-06
188	0x37b838ca	2.1960954e-05
189	0x3817bada	3.6175225e-05
190	0x35a59c04	1.2338865e-06
191	0x35a0f9e9	1.1993662e-06
192	0x3578a187	9.262225e-07
193	0x35e6bfb6	1.7192131e-06
194	0x367c812e	3.7626119e-06
195	0x34363315	1.6968654e-07
196	0x33ffaa0d	1.1905295e-07
197	0x346e2346	2.217831e-07
198	0x35778b96	9.2217795e-07
199	0x364e36f9	3.072839e-06
200	0x39368cca	0.0001740932
201	0x392c7c61	0.00016449533
202	0x38009258	3.065387e-05
203	0x387663cc	5.8743914e-05
204	0x38d3f726	0.00010107299
205	0x37d8c42b	2.5840554e-05
206	0x37c034b6	2.2912729e-05
207	0x37a13692	1.9218107e-05
208	0x389b9523	7.418755e-05
209	0x38129e76	3.495669e-05
210	0x35ed1b3f	1.7665806e-06
211	0x360289ca	1.9451713e-06
212	0x367448c2	3.6401184e-06
213	0x3608c245	2.037866e-06
214	0x36ea4d05	6.9827097e-06
215	0x38297d3d	4.0409377e-05
216	0x38114e44	3.4643585e-05
217	0x390961a5	0.00013101714
218	0x38fd6fc9	0.00012084802
219	0x3993301a	0.00028073863
220	0x388859c3	6.501705e-05
221	0x3876b3dd	5.881848e-05
222	0x37e3bd97	2.7148793e-05
223	0x37b90245	2.2054775e-05
224	0x38350b33	4.3164193e-05
225	0x387827b5	5.9164788e-05
226	0x3860a969	5.3563537e-05
227	0x37d4d28b	2.5370411e-05
228	0x380fca7d	3.428244e-05
229	0x38537c97	5.0422354e-05
230	0x36a2e5ca	4.854727e-06
231	0x36aa7478	5.0799536e-06
232	0x36aeca65	5.209166e-06
233	0x36fa18cd	7.453468e-06
234	0x36fe6d03	7.5824805e-06
235	0x34f03b82	4.474678e-07
236	0x34dd956a	4.127317e-07
237	0x35714bed	8.988998e-07
238	0x35bd9663	1.4125366e-06
239	0x36a0b0c9	4.788952e-06
240	0x38497964	4.803519e-05
241	0x3842c459	4.6436067e-05
242	0x358ea20a	1.0626984e-06
243	0x37487277	1.194758e-05
244	0x377fd4fa	1.5248772e-05
245	0x37a198d7	1.9263867e-05
246	0x37b65f4e	2.174047e-05
247	0x3745da88	1.1792996e-05
248	0x37b7a030	2.1889893e-05
249	0x376dbbeb	1.4170054e-05
250	0x34aba45c	3.197082e-07
251	0x34e9d4e8	4.3554542e-07
252	0x34ccc7f4	3.8143446e-07
253	0x3480d649	2.399777e-07
254	0x34aab82d	3.1798973e-07
255	0x37985ab3	1.8162047e-05

exp_avg f4 [16]
0	0xb16e00fd	-3.463412e-09
1	0x30570ff2	7.8239204e-10
2	0x2ec94ed1	9.1544224e-11
3	0xb009042a	-4.9846227e-10
4	0xb05a633c	-7.944896e-10
5	0x302ce987	6.29051e-10
6	0x300eca26	5.194657e-10
7	0x2fe34a61	4.134391e-10
8	0xb229697a	-9.861077e-09
9	0x31016ddf	1.8834425e-09
10	0x311d6d05	2.2908477e-09
11	0xb21a45fb	-8.9798915e-09
12	0x3297ebd3	1.7685954e-08
13	0x31601777	3.2609628e-09
14	0xb28bde13	-1.6282717e-08
15	0x338f0f6e	6.661763e-08

exp_avg_sq f4 [16]
0	0x258bcd4d	2.4251774e-16
1	0x23b556e5	1.966086e-17
2	0x264e58b7	7.159084e-16
3	0x21b27e58	1.2095192e-18
4	0x24ad0955	7.50426e-17
5	0x24d1200e	9.0693604e-17
6	0x24583103	4.687905e-17
7	0x25cdb55e	3.568473e-16
8	0x25b52415	3.1422945e-16
9	0x2577ce89	2.1493812e-16
10	0x26bbe4ea	1.3037779e-15
11	0x26be70d8	1.3214485e-15
12	0x274c956b	2.8391687e-15
13	0x26a03e2a	1.111908e-15
14	0x28c938b2	2.234007e-14
15	0x298e8ad8	6.330152e-14

exp_avg f4 [16]
0	0xba6f4eeb	-0.0009128886
1	0x3b036621	0.0020049887
2	0xbbd298bb	-0.0064268983
3	0x3b2a2967	0.002596462
4	0x3b17183a	0.0023055212
5	0xbb559a5c	-0.0032593226
6	0xbb446c5a	-0.002997181
7	0xbb5eeecf	-0.0034016853
8	0x39b2dd3a	0.00034115632
9	0xbb29cb87	-0.0025908665
10	0xbae0fdae	-0.0017165446
11	0xba73a1fa	-0.0009293851
12	0x3b499fa0	0.003076531
13	0x3b6efb10	0.0036465563
14	0x3c9a1afb	0.018811693
15	0x3be8835c	0.0070957374

exp_avg_sq f4 [16]
0	0x37dd7011	2.6397438e-05
1	0x3aab3e4e	0.0013064833
2	0x3a281beb	0.00064128515
3	0x39336e18	0.00017111783
4	0x3929700a	0.00016158834
5	0x393c6c00	0.0001796931
6	0x39b03140	0.0003360603
7	0x3ab69c3d	0.0013932061
8	0x38324ab4	4.250808e-05
9	0x39a739c4	0.0003189576
10	0x381c426d	3.7255162e-05
11	0x387b8eb3	5.9975962e-05
12	0x396ad42d	0.0002239502
13	0x396fa5be	0.0002285456
14	0x3baa5366	0.00519793
15	0x3acd912d	0.0015683525

exp_avg f4 [16]
0	0xbb436f6e	-0.0029821056
1	0x3b3526fd	0.0027641647
2	0x3a987325	0.0011630995
3	0x3b4a9a35	0.0030914668
4	0x3b3a96c0	0.0028471202
5	0xbb1c8620	-0.0023883656
6	0xbb20c7ea	-0.002453322
7	0x3b06b02c	0.0020551784
8	0xba4e9219	-0.00078800466
9	0xbace6419	-0.0015746384
10	0xbb83c2b2	-0.004021012
11	0x3aedffb8	0.0018157875
12	0xbbd7235c	-0.0065654945
13	0xbb9722cc	-0.0046123024
14	0x3caf8384	0.021425016
15	0x3c7398f1	0.014868007

exp_avg_sq f4 [16]
0	0x39075272	0.00012905317
1	0x3a9637de	0.0011460742
2	0x3a3ce3a2	0.0007205551
3	0x392d17d8	0.00016507448
4	0x399cd75f	0.00029915103
5	0x39811b99	0.0002462536
6	0x3972f13d	0.00023168787
7	0x39c19ce9	0.00036928736
8	0x38dc15b3	0.00010494459
9	0x37ff75a7	3.0453155e-05
10	0x38df37f1	0.000106438885
11	0x38bfdada	9.148354e-05
12	0x3a9dd006	0.0012040145
13	0x3a2a57a6	0.0006498046
14	0x3ba88703	0.005143048
15	0x3acd09c3	0.0015643168

exp_avg f4 [8, 12, 1, 1]
0	0xbc14f2b0	-0.009091064
1	0xbbd93053	-0.006628075
2	0xbbe00732	-0.0068367952
3	0xbc14d64c	-0.0090842955
4	0xbc039086	-0.008030063
5	0xbb9d4f58	-0.0048007183
6	0xbbc3addb	-0.005971653
7	0xbbb90cfb	-0.0056472993
8	0xbc045bfa	-0.00807857
9	0xbc40f69e	-0.011777548
10	0xbc4a249d	-0.012337831
11	0xbc4e3278	-0.012585275
12	0xbb536ef8	-0.0032262187
13	0xbb08fca3	-0.0020902536
14	0xbb1f7a1a	-0.0024334253
15	0xbb6d98f3	-0.0036254495
16	0xbbabe227	-0.0052454653
17	0x3ab880af	0.0014076437
18	0xbb1db3dd	-0.0024063506
19	0xba681130	-0.0008852659
20	0xbb99fce2	-0.0046993354
21	0xbb85c2d4	-0.004082063
22	0xbb768f59	-0.0037622063
23	0xbb011eaf	-0.0019702127
24	0xbaa4d529	-0.0012575734
25	0xbaadd325	-0.0013261779
26	0xba8b6bac	-0.0010636947
27	0xbac066ea	-0.0014679108
28	0xbab958fc	-0.0014140899
29	0xbaa9b6ce	-0.0012948157
30	0xb94a3d8c	-0.00019287149
31	0xb945d617	-0.00018867139
32	0x376ad10e	1.3996161e-05
33	0x3a030f37	0.00049995206
34	0x3a238ca8	0.0006238916
35	0x392e1204	0.00016600644
36	0xba641d07	-0.0008701835
37	0xba4d7ee7	-0.00078390393
38	0xba79fc63	-0.0009536205
39	0xb7e27696	-2.699652e-05
40	0xbb062687	-0.0020469741
41	0xbab7e6be	-0.0014030559
42	0xb9c210f8	-0.00037015206
43	0x39a7645a	0.0003192749
44	0x39b9343a	0.00035324862
45	0x3b015421	0.0019733983
46	0x3a9c8bd3	0.0011943526
47	0x3ad9906a	0.0016598825
48	0x39e476e8	0.0004357614
49	0x3acbbc60	0.0015543811
50	0xb925f416	-0.00015826555
51	0x3b2b8684	0.0026172707
52	0x3ae37bef	0.0017355661
53	0xba81b16c	-0.0009894795
54	0x3adc7b24	0.0016821367
55	0xb82329a2	-3.8901002e-05
56	0x3ab0040f	0.0013428944
57	0x3b83957c	0.0040156227
58	0x3affac68	0.0019506337
59	0xba865aab	-0.001025041
60	0x3bd42ce1	0.0064750765
61	0x3b65f9d2	0.0035091531
62	0x3b8a3745	0.0042180144
63	0x3be39e94	0.006946394
64	0x3ba92efb	0.005163071
65	0x3c5a5a2d	0.013327164
66	0x3b06cb18	0.002056783
67	0x3b6929dc	0.0035577929
68	0x3b02532c	0.0019886
69	0xbc13597c	-0.008993503
70	0xbbe8df16	-0.007106672
71	0xbbc4d24f	-0.006006516
72	0xbb0296f1	-0.0019926394
73	0xb7acac68	-2.058428e-05
74	0x3aa654df	0.0012690088
75	0xbacc2e5e	-0.0015577783
76	0x398de043	0.00027060704
77	0x3b52de7c	0.0032176068
78	0xba03f901	-0.0005034358
79	0x38bd1f2f	9.018031e-05
80	0xb9708848	-0.00022938952
81	0xbaa19fa9	-0.0012330908
82	0xba9af055	-0.0011820892
83	0x3876d05c	5.884502e-05
84	0xba2381ef	-0.0006237318
85	0x3aa808f7	0.0012820055
86	0x3ad93d2c	0.0016574017
87	0x3987364a	0.00025789655
88	0x3adc09b8	0.0016787564
89	0x3ab6eb8a	0.0013955694
90	0xb9b0e5c9	-0.0003374054
91	0xb9bf5357	-0.00036492452
92	0xb939a2b7	-0.00017703591
93	0xbaacc037	-0.0013179843
94	0xbaddbf61	-0.0016917997
95	0xba3bed7a	-0.00071688707

exp_avg_sq f4 [8, 12, 1, 1]
0	0x3a2afadb	0.0006522366
1	0x3a078fbd	0.000517126
2	0x39c802fd	0.000381492
3	0x3a6b785a	0.00089824724
4	0x3a4ee7e9	0.00078928337
5	0x39621047	0.00021559103
6	0x39356209	0.00017298026
7	0x392ad044	0.00016290048
8	0x39417a85	0.00018451556
9	0x3a8d7308	0.0010791728
10	0x3a952945	0.0011380097
11	0x3a73ee36	0.00093052106
12	0x392eada4	0.0001665862
13	0x397fe81d	0.00024405164
14	0x395ec4db	0.00021244904
15	0x398aefc9	0.00026500065
16	0x39cadcf1	0.00038693057
17	0x39940562	0.0002823277
18	0x382060e8	3.8237224e-05
19	0x3706334a	7.998964e-06
20	0x384c5a76	4.872164e-05
21	0x395405a0	0.00020219991
22	0x38ef8603	0.0001142137
23	0x37aa9d3d	2.0338799e-05
24	0x373e7cc1	1.1353929e-05
25	0x373d5b84	1.12865855e-05
26	0x374c9ed7	1.219633e-05
27	0x375c9e97	1.3149946e-05
28	0x3782c36b	1.5588206e-05
29	0x37669334	1.3743342e-05
30	0x3549b1df	7.513717e-07
31	0x352ace3a	6.3630034e-07
32	0x3599c8a4	1.1457782e-06
33	0x367646bc	3.669803e-06
34	0x3621cb6a	2.4109272e-06
35	0x3696d6e9	4.495367e-06
36	0x3723bbff	9.759328e-06
37	0x37410f42	1.1507249e-05
38	0x3764249e	1.3598385e-05
39	0x37901643	1.7176504e-05
40	0x379fef55	1.9065725e-05
41	0x37592c8a	1.2944578e-05
42	0x373f6bd3	1.1409592e-05
43	0x3681e631	3.8712974e-06
44	0x36bcd26e	5.627334e-06
45	0x37deff84	2.6583446e-05
46	0x37c00155	2.2888804e-05
47	0x37c2a4b6	2.3203302e-05
48	0x386b9231	5.6164517e-05
49	0x378bea3d	1.6679167e-05
50	0x381d3974	3.7485224e-05
51	0x3908653a	0.0001300768
52	0x38f6a309	0.00011760562
53	0x3911ab0f	0.00013892002
54	0x37b72056	2.1830358e-05
55	0x3819306f	3.652315e-05
56	0x383768c3	4.3728167e-05
57	0x38957496	7.1265895e-05
58	0x38c26ec2	9.271271e-05
59	0x38f0b5ea	0.00011477976
60	0x3a2b3688	0.0006531258
61	0x3a0dbf2a	0.0005407209
62	0x39951ff8	0.00028443313
63	0x3a902c19	0.001099947
64	0x3a4e223e	0.0007863379
65	0x3a03e593	0.00050314626
66	0x38dc6f55	0.00010511155
67	0x38b04f9a	8.407161e-05
68	0x395c0a32	0.00020984633
69	0x3a35d4f8	0.0006936337
70	0x3912e4ad	0.00014008833
71	0x39a310a3	0.00031102178
72	0x3925382a	0.00015756549
73	0x3904f86e	0.00012681048
74	0x39042987	0.00012603971
75	0x39b017a6	0.00033586955
76	0x38e0b057	0.00010713998
77	0x398f9d9e	0.0002739252
78	0x375632e6	1.2767245e-05
79	0x37615ad5	1.3432194e-05
80	0x3791fc1c	1.7402745e-05
81	0x38a30ecc	7.775202e-05
82	0x387da56d	6.0473965e-05
83	0x3867a9cf	5.523284e-05
84	0x380766a3	3.2282096e-05
85	0x37b025a2	2.099836e-05
86	0x38771ac9	5.8914335e-05
87	0x38682981	5.5351764e-05
88	0x3842ae38	4.641546e-05
89	0x38c22269	9.25705e-05
90	0x37c66756	2.3651559e-05
91	0x379ee9e8	1.8943989e-05
92	0x37d186f0	2.4977577e-05
93	0x38c76b31	9.5090254e-05
94	0x38fbaf64	0.00012001282
95	0x38a5dabb	7.908555e-05

exp_avg f4 [8]
0	0x316d7838	3.4556376e-09
1	0x3296d921	1.7561037e-08
2	0x2f90093c	2.620001e-10
3	0x31f88dd4	7.233874e-09
4	0xb2a8c385	-1.9646686e-08
5	0x3356564c	4.9904244e-08
6	0xb13c144b	-2.7369136e-09
7	0x322644c9	9.678112e-09

exp_avg_sq f4 [8]
0	0x2741668c	2.6839721e-15
1	0x26f0e39f	1.6715042e-15
2	0x2493f362	6.4163394e-17
3	0x257922cd	2.1609098e-16
4	0x27ae20fa	4.8330455e-15
5	0x2936effa	4.0620265e-14
6	0x26a7b5c4	1.163722e-15
7	0x265bc349	7.624555e-16

exp_avg f4 [8]
0	0x3b0ae735	0.002119494
1	0xbb5d704e	-0.0033788863
2	0xbac16a53	-0.0014756419
3	0x3a24e908	0.0006290828
4	0xbb6680ea	-0.0035172054
5	0x3b2cd41a	0.002637154
6	0x381965a9	3.657272e-05
7	0x39306dd3	0.0001682558

exp_avg_sq f4 [8]
0	0x38a7c20d	7.999325e-05
1	0x39194494	0.00014616764
2	0x381c37bb	3.72452e-05
3	0x3712934f	8.736576e-06
4	0x383ca882	4.4979628e-05
5	0x37d4fcd5	2.5390103e-05
6	0x37dc6a52	2.6275553e-05
7	0x385197be	4.9970804e-05

exp_avg f4 [8]
0	0xba50b118	-0.00079609593
1	0xbab890d0	-0.0014081243
2	0x39c75021	0.00038015938
3	0xb8ef0f09	-0.000113992086
4	0x395e6477	0.00021208996
5	0x39dc218a	0.00041986658
6	0x3928b762	0.00016090044
7	0x396a42d8	0.0002234088

exp_avg_sq f4 [8]
0	0x38da2152	0.000104012564
1	0x397f2f40	0.00024336297
2	0x36ac788f	5.1400343e-06
3	0x35392e40	6.8985173e-07
4	0x36b42067	5.36819e-06
5	0x3700c214	7.674582e-06
6	0x34f4e9f4	4.5618765e-07
7	0x36f2455d	7.220237e-06

exp_avg f4 [8, 2, 3, 3]
0	0x3ad9a5d9	0.0016605213
1	0x3b096aa8	0.0020968113
2	0x3b299a53	0.0025879338
3	0x39a7cd91	0.0003200588
4	0x3ace5a61	0.0015743488
5	0x3b06492a	0.0020490387
6	0xbaeb1fb1	-0.0017938522
7	0x3a8005bf	0.0009767337
8	0x3adaec33	0.0016702473
9	0x3baa11e1	0.0051901196
10	0x3bdfa8e0	0.0068255514
11	0x3bd40893	0.0064707487
12	0x3b822b33	0.003972435
13	0x3bcebd46	0.0063091842
14	0x3bbec821	0.005822197
15	0x3ab8fe78	0.0014113924
16	0x3b95b47d	0.004568635
17	0x3b9866bd	0.004650919
18	0xb91c0393	-0.00014878651
19	0xbbe03c22	-0.006843106
20	0xbb1a3b42	-0.0023533856
21	0x3ab01ed2	0.001343692
22	0xbbbd0cad	-0.0057693333
23	0xbb209e17	-0.0024508291
24	0x3b99b9a4	0.0046913195
25	0xbbaa8c01	-0.005204678
26	0xbb32bf9f	-0.002727486
27	0xbbc774a6	-0.0060869036
28	0xbc30cd3f	-0.010791122
29	0xbbe763ad	-0.007061443
30	0xbbb985a1	-0.0056616818
31	0xbc322d65	-0.010875081
32	0xbbea7d97	-0.0071560848
33	0xbb2a08bb	-0.0025945145
34	0xbc1f5682	-0.009725215
35	0xbbd6a71f	-0.006550684
36	0xbb2253de	-0.0024769227
37	0xbacbcec9	-0.0015549298
38	0xbb085684	-0.002080352
39	0xbb3670f3	-0.002783832
40	0xbaebd801	-0.0017993451
41	0xbb23dc96	-0.0025003306
42	0xbadf9de3	-0.0017060604
43	0xba1505a4	-0.00056847394
44	0xbabeefbc	-0.0014567296
45	0xbb83c2f5	-0.0040210434
46	0xbb961618	-0.0045802705
47	0xbb6255b8	-0.0034535956
48	0xbb8b5bba	-0.004252878
49	0xbba7b5cd	-0.005118108
50	0xbb80792f	-0.003920696
51	0xbb2cd732	-0.0026373384
52	0xbb511052	-0.0031900597
53	0xbb02d95e	-0.0019965987
54	0xba51446e	-0.0007982914
55	0xba1984ab	-0.0005856256
56	0xba2bf343	-0.0006559381
57	0xba15f9d7	-0.0005721128
58	0xb9374c98	-0.00017480773
59	0xb9a08f72	-0.00030624453
60	0xb9763cef	-0.00023483088
61	0x39950192	0.00028420665
62	0xb89ffdd3	-7.628989e-05
63	0x3a277b5f	0.0006388928
64	0xb9c3a512	-0.00037316285
65	0xb9e63c44	-0.0004391392
66	0x3a98c8bc	0.0011656503
67	0x3845dfa0	4.7176727e-05
68	0x396b959b	0.00022467079
69	0x3ace9233	0.0015760123
70	0x3a0f1cc1	0.0005459302
71	0x3a5a116c	0.0008318636
72	0x3babac10	0.0052390173
73	0x3bbdaae0	0.005788192
74	0x3bafa866	0.005360651
75	0x3b88735d	0.004164143
76	0x3b531533	0.003220868
77	0x3b81d0f5	0.003961677
78	0x3b8ecf2a	0.004358192
79	0x3baa3a1d	0.005194916
80	0x3be8c261	0.00710325
81	0xbac51d57	-0.0015038651
82	0xbba47a18	-0.0050194375
83	0xbba9492b	-0.005166193
84	0x3afc6627	0.0019256518
85	0xba7b3e2c	-0.00095841545
86	0xbb877c78	-0.004134711
87	0x3b6499a4	0.0034881616
88	0x3a85e6be	0.0010215861
89	0xbb6a6f50	-0.0035771914
90	0x3b25fa62	0.0025326242
91	0x3b2d6158	0.0026455726
92	0x3b6ec1b3	0.0036431372
93	0x3b336bf8	0.0027377587
94	0x3b239188	0.002495857
95	0x3b8861fe	0.004162072
96	0x3a55a14e	0.00081493414
97	0x396958ce	0.00022253694
98	0x3b30c6b9	0.0026973917
99	0x3c0f4940	0.0087454915
100	0x3c449840	0.01199919
101	0x3c0f6c63	0.008753869
102	0x3bcd77fa	0.006270406
103	0x3c2418f7	0.010015718
104	0x3bc60a41	0.006043703
105	0xbac4fb8c	-0.001502858
106	0x3b61b2a1	0.0034438747
107	0xbb2b5d36	-0.0026148087
108	0x3b555b96	0.003255581
109	0x3b28bbad	0.002574663
110	0x3a46f617	0.0007589771
111	0x3a8b33ce	0.0010620297
112	0x3a2399ad	0.0006240856
113	0xbad56cb4	-0.0016283006
114	0xbb0f92c9	-0.002190756
115	0xbb63aa43	-0.0034738935
116	0xbbab5bd2	-0.0052294517
117	0x3addbf41	0.001691796
118	0x3b34ab44	0.0027567903
119	0x3a24aa9d	0.0006281527
120	0x3aa06fb6	0.0012240324
121	0x3ab3b35a	0.0013710067
122	0xb8ca28a6	-9.639682e-05
123	0x3a8ea85b	0.0010883914
124	0xba0ceade	-0.0005375574
125	0xbb54668b	-0.0032409753
126	0xbb609f02	-0.0034274464
127	0xbb723afe	-0.0036961432
128	0xbb2eabf8	-0.0026652794
129	0xbb23d7b3	-0.0025000393
130	0xbb3daed7	-0.0028943324
131	0xbb10fbc2	-0.0022122716
132	0xbab6b615	-0.0013939763
133	0xbae5b92c	-0.0017526499
134	0xba766227	-0.0009398781
135	0xbb260f14	-0.0025338577
136	0xbae537f1	-0.0017487985
137	0xba55c150	-0.0008154111
138	0xbaf96295	-0.0019026572
139	0xba88b3bd	-0.0010429543
140	0xb9a715c9	-0.00031868953
141	0xbaa176fa	-0.0012318783
142	0xba114d40	-0.0005542822
143	0x38cb7c97	9.703001e-05

exp_avg_sq f4 [8, 2, 3, 3]
0	0x38179c69	3.6146874e-05
1	0x3916fbef	0.00014398967
2	0x38923e81	6.973465e-05
3	0x38620bcf	5.3893596e-05
4	0x3916ff37	0.0001440019
5	0x389e8ec9	7.560623e-05
6	0x3864163d	5.4380147e-05
7	0x391b6c50	0.00014822301
8	0x38b77666	8.7481734e-05
9	0x385d9dba	5.28374e-05
10	0x394ee0bb	0.0001972941
11	0x38eb5164	0.000112208334
12	0x380bfd05	3.3375825e-05
13	0x393ed7d3	0.00018200213
14	0x38ca7529	9.6539334e-05
15	0x378e86ae	1.6990434e-05
16	0x392248fe	0.00015476716
17	0x38b1168c	8.4442174e-05
18	0x38bbf798	8.962973e-05
19	0x39b19bb7	0.00033876087
20	0x39aa3ae5	0.00032468807
21	0x3902c5a3	0.00012471392
22	0x39af4e02	0.0003343672
23	0x39c0125b	0.0003663477
24	0x38c56e7b	9.4142706e-05
25	0x39b6de8a	0.0003487955
26	0x39ddfb86	0.00042339804
27	0x394210f5	0.00018507599
28	0x3a044b69	0.00050466374
29	0x39b30cd9	0.00034151113
30	0x392116c7	0.00015362642
31	0x3a032e3a	0.0005004142
32	0x39b41cc6	0.00034353713
33	0x391473ee	0.00014157567
34	0x39f4ad0f	0.00046668245
35	0x39bb5fd7	0.00035738826
36	0x37be7315	2.2703354e-05
37	0x37a5cc3c	1.9764637e-05
38	0x379e9af7	1.8907229e-05
39	0x37a36f14	1.9482839e-05
40	0x3782e52b	1.5603922e-05
41	0x3782e680	1.5604543e-05
42	0x374c01bf	1.2159754e-05
43	0x36dbf5e4	6.555334e-06
44	0x36fd9912	7.5578073e-06
45	0x38a1b8f0	7.7115255e-05
46	0x38bbe123	8.95879e-05
47	0x38a263a7	7.743324e-05
48	0x38939065	7.036402e-05
49	0x38a11c2d	7.6823264e-05
50	0x388f0748	6.8201276e-05
51	0x3829bbb5	4.0467556e-05
52	0x3821fad4	3.8618993e-05
53	0x37fc8ebe	3.010721e-05
54	0x368feb2b	4.2891093e-06
55	0x364fd554	3.0969577e-06
56	0x369945b8	4.5678717e-06
57	0x36759e0a	3.6599836e-06
58	0x360ca6bd	2.095868e-06
59	0x3645ba38	2.946368e-06
60	0x36673bae	3.445642e-06
61	0x36331790	2.6686794e-06
62	0x360b2c81	2.0738519e-06
63	0x384dad6a	4.9037313e-05
64	0x36a9258a	5.0409626e-06
65	0x3719bb80	9.163166e-06
66	0x385b09d5	5.2222826e-05
67	0x36882454	4.057345e-06
68	0x37148cb2	8.854246e-06
69	0x385f0991	5.3176253e-05
70	0x36e3d60b	6.790045e-06
71	0x3738cfaa	1.1015605e-05
72	0x3a49e9c2	0.0007702374
73	0x3a62e577	0.0008655409
74	0x3a8cfd8c	0.0010756715
75	0x3a10c7bb	0.0005522926
76	0x39eed92a	0.00045556697
77	0x3a392346	0.0007062446
78	0x3a1d91fe	0.0006010829
79	0x39b3889b	0.0003424332
80	0x3a385867	0.0007032216
81	0x3a42d9e2	0.000743298
82	0x3a884c6d	0.0010398753
83	0x3aa25e82	0.0012387785
84	0x39e75f87	0.00044130927
85	0x3a180398	0.00057988754
86	0x3a8bdc25	0.0010670467
87	0x39bd1883	0.00036067152
88	0x3953bdf7	0.00020193295
89	0x3a831dbf	0.0010003372
90	0x389f73d8	7.6032884e-05
91	0x389bbaec	7.425793e-05
92	0x38910385	6.914794e-05
93	0x389f319f	7.5909535e-05
94	0x38a44238	7.8324636e-05
95	0x387077c6	5.7332007e-05
96	0x389ae84d	7.3865616e-05
97	0x38ae360d	8.307034e-05
98	0x3849e59e	4.8135982e-05
99	0x3b0f1d3c	0.0021837493
100	0x3b0834d6	0.0020783446
101	0x3b18fb50	0.0023343153
102	0x3a87b8f6	0.0010354805
103	0x3a6fb3dc	0.00091439276
104	0x3aa10c82	0.0012287053
105	0x397da18e	0.00024188144
106	0x38e1c0d7	0.00010764755
107	0x39dfc894	0.00042683317
108	0x398638e5	0.0002560086
109	0x38e63d66	0.00010978691
110	0x39730618	0.00023176556
111	0x395b40f3	0.00020909663
112	0x38739719	5.8076435e-05
113	0x396f8ac8	0.00022844516
114	0x3981323f	0.00024642234
115	0x38a963e9	8.077158e-05
116	0x3999ec33	0.00029358416
117	0x397cc750	0.00024106842
118	0x391f438d	0.00015188586
119	0x38a8f261	8.056011e-05
120	0x39834df9	0.0002504436
121	0x390aa55e	0.0001322231
122	0x3886ff5e	6.437184e-05
123	0x399d7aa5	0.0003003675
124	0x392d7a18	0.00016544049
125	0x38b38a71	8.561172e-05
126	0x386faeb3	5.714474e-05
127	0x38772106	5.8920145e-05
128	0x3887ad44	6.469575e-05
129	0x37e2f537	2.7055486e-05
130	0x3807ed3e	3.2407457e-05
131	0x381c7d43	3.7309957e-05
132	0x373d0b87	1.1267962e-05
133	0x37a41564	1.9560284e-05
134	0x37bb0469	2.229419e-05
135	0x37892348	1.6348102e-05
136	0x36f604db	7.3319366e-06
137	0x36a6cd4e	4.971086e-06
138	0x371f0861	9.479089e-06
139	0x36541b94	3.1606514e-06
140	0x3678844e	3.7031891e-06
141	0x36d870ed	6.450448e-06
142	0x3618bef8	2.2760923e-06
143	0x368aabe1	4.13273e-06

exp_avg f4 [8]
0	0xad0d90a3	-8.047038e-12
1	0x2d9d1f49	1.7862727e-11
2	0xaf21de06	-1.4721743e-10
3	0xae6e3373	-5.416063e-11
4	0x315b93ff	3.195282e-09
5	0x30bc8e05	1.3719165e-09
6	0x305753e0	7.833574e-10
7	0x2facb313	3.1413858e-10

exp_avg_sq f4 [8]
0	0x229b011d	4.2014013e-18
1	0x23be8a53	2.0658424e-17
2	0x22733182	3.295885e-18
3	0x21a0ffb3	1.0909705e-18
4	0x25546e86	1.8425516e-16
5	0x258be0db	2.4265024e-16
6	0x247c4e7e	5.4710275e-17
7	0x2314df4e	8.070383e-18

exp_avg f4 [8]
0	0xba90ab6d	-0.0011037417
1	0xbb5a7f45	-0.0033340019
2	0x3b183fe1	0.0023231434
3	0x3bf8e449	0.007595573
4	0xbbf6ac34	-0.0075278524
5	0x3be5abe2	0.0070090154
6	0x3b525563	0.0032094351
7	0xbc38abe3	-0.01127145

exp_avg_sq f4 [8]
0	0x38aa9af5	8.135095e-05
1	0x394ab587	0.00019331845
2	0x381bcf09	3.7147696e-05
3	0x39f605db	0.0004692514
4	0x3b02d841	0.0019965323
5	0x3aa3603d	0.0012464594
6	0x3ba967ea	0.005169858
7	0x3a853fd5	0.0010166118

exp_avg f4 [8]
0	0xb0081a1f	-4.951363e-10
1	0x30bc537f	1.3702531e-09
2	0x2de8c70d	2.6463743e-11
3	0x303bada1	6.8276945e-10
4	0x3aa3ae4f	0.0012487861
5	0x3bf49194	0.0074636433
6	0x39483f70	0.00019097119
7	0xbc1d78cc	-0.00961132

exp_avg_sq f4 [8]
0	0x23bd7461	2.054071e-17
1	0x24a94a13	7.3417553e-17
2	0x2395183b	1.6164874e-17
3	0x23fc0d8a	2.7327629e-17
4	0x3aa22b94	0.0012372606
5	0x3a069404	0.00051337504
6	0x3aa5c731	0.0012647865
7	0x3a29943d	0.00064689276

exp_avg f4 [4, 8, 1, 1]
0	0xb93738ff	-0.00017473473
1	0x39cab64f	0.00038664273
2	0x39a45a11	0.00031347622
3	0xb8d9bd4b	-0.00010382625
4	0x3b841f0f	0.004032023
5	0xbb515f32	-0.003194761
6	0xbb0f13a1	-0.0021831768
7	0x3a91fca3	0.0011137914
8	0x3a6807f9	0.00088512857
9	0x3ae0838d	0.0017129049
10	0xb98cab8a	-0.00026830687
11	0xb930a424	-0.00016845815
12	0x3b8881f1	0.004165881
13	0xbb91e9fe	-0.004452943
14	0xbb179035	-0.0023126726
15	0xbc2525bc	-0.010079797
16	0xba23db5c	-0.00062506436
17	0x3938a7f0	0.00017610169
18	0xba16afdc	-0.0005748251
19	0xb9cc03fd	-0.00038912884
20	0xb934d4a0	-0.00017245347
21	0x3a4f0808	0.000789762
22	0xba464227	-0.0007562958
23	0x3bb1f66a	0.005430986
24	0xbae0799a	-0.0017126084
25	0xbb043663	-0.0020174019
26	0xbbb738e0	-0.005591497
27	0x3a6dd40a	0.0009072429
28	0x3c38fc86	0.011290675
29	0xbc1ea40c	-0.0096826665
30	0xbc7813c0	-0.0151414275
31	0x3cf0fa31	0.029416176
