checkpoints/model_0120_gru.tar (torch, 712219 bytes, 665 tensors)

exp_avg f4 [16, 9, 1, 5]
000000 2e 1e 4a b9 7d 62 b3 ba ba c4 97 ba 08 c7 d2 ba
       -0.00019275464 -0.0013685968 -0.0011579015 -0.0016081044
000010 6f db 11 3a 7d 62 b3 ba ba c4 97 ba 0f 24 cd ba
       0.0005564009 -0.0013685968 -0.0011579015 -0.0015651005
000020 6f db 11 3a d7 16 39 b9 ba c4 97 ba 1e 90 1e 3a
       0.0005564009 -0.00017651483 -0.0011579015 0.0006048697
000030 6f db 11 3a d7 16 39 b9 ac 4e 57 ba 50 98 b8 b8
       0.0005564009 -0.00017651483 -0.0008213322 -8.802174e-05
000040 b4 c9 df 39 25 29 10 ba e3 70 fb ba 50 9c 3d b9
       0.00042684155 -0.0005499295 -0.0019183423 -0.00018082676
000050 b4 c9 df 39 25 29 10 ba a2 6a fb ba 50 9c 3d b9
       0.00042684155 -0.0005499295 -0.0019181559 -0.00018082676
000060 8a 9f 84 3a 25 29 10 ba 16 a9 fe 38 50 9c 3d b9
       0.0010118347 -0.0005499295 0.000121431585 -0.00018082676
000070 8a 9f 84 3a 44 9f 28 ba 7d 92 d1 b9 ca 95 a5 39
       0.0010118347 -0.0006432424 -0.0003997273 0.00031582854
000080 69 75 b4 b9 1b f0 0e 3a a1 84 fd b9 cc 95 a5 39
       -0.00034419753 0.00054526486 -0.00048354737 0.0003158286
000090 69 75 b4 b9 4c a0 0e 3a a1 84 fd b9 cb f1 b1 39
       -0.00034419753 0.0005440756 -0.00048354737 0.0003394022
0000a0 69 75 b4 b9 4c a0 0e 3a a1 84 fd b9 cb f1 b1 39
       -0.00034419753 0.0005440756 -0.00048354737 0.0003394022
0000b0 5c 31 49 38 37 08 ae ba 98 a5 a1 bb a2 cb 4a bb
       4.7968104e-05 -0.0013277595 -0.0049330704 -0.0030944129
0000c0 37 db 25 3a 07 84 e8 3a 98 a5 a1 bb a2 cb 4a bb
       0.0006326916 0.0017739543 -0.0049330704 -0.0030944129
0000d0 c4 ce 2c 3a 07 84 e8 3a b1 20 c7 ba a2 cb 4a bb
       0.000659209 0.0017739543 -0.0015192238 -0.0030944129
0000e0 2e e6 81 3a 07 84 e8 3a b1 20 c7 ba a3 fc 9d ba
       0.0009910518 0.0017739543 -0.0015192238 -0.0012053441
0000f0 18 48 81 35 cb ab 83 3a 05 81 53 ba ad 23 ea 39
       9.632231e-07 0.0010045705 -0.00080682366 0.00044658539
000100 df eb 12 ba cb ab 83 3a 05 81 53 ba b7 40 e8 39
       -0.00056046055 0.0010045705 -0.00080682366 0.00044298705
000110 df eb 12 ba a8 f4 1b 3a 05 81 53 ba 48 33 7d 39
       -0.00056046055 0.00059492374 -0.00080682366 0.00024147064
000120 df eb 12 ba a8 f4 1b 3a e6 ca 3c ba f2 d2 7c 39
       -0.00056046055 0.00059492374 -0.0007201865 0.00024111176
000130 78 56 cb 39 37 3d f2 b9 f8 b3 e9 39 13 2a 0f ba
       0.00038783601 -0.00046203446 0.0004457531 -0.00054612866
000140 7a 56 cb 39 37 3d f2 b9 70 0a e7 39 13 2a 0f ba
       0.00038783607 -0.00046203446 0.0004406753 -0.00054612866
000150 69 b5 42 3a 37 3d f2 b9 70 0a e7 39 13 2a 0f ba
       0.0007427545 -0.00046203446 0.0004406753 -0.00054612866
000160 69 b5 42 3a d3 29 26 ba 37 2c 08 3b 93 91 80 ba
       0.0007427545 -0.000633863 0.0020778307 -0.000980901
000170 8a 63 c7 ba 7b 16 25 3b 28 51 76 bb 93 91 80 ba
       -0.001521216 0.0025190401 -0.0037584994 -0.000980901
000180 8a 63 c7 ba 98 d9 25 3b 28 51 76 bb 38 21 ae bb
       -0.001521216 0.0025306698 -0.0037584994 -0.0053140186
000190 8a 63 c7 ba fe 25 30 3b 28 51 76 bb 38 21 ae bb
       -0.001521216 0.0026878114 -0.0037584994 -0.0053140186
0001a0 71 49 bc ba 4f c5 9a ba 85 7f d0 3a 45 e2 bb ba
       -0.0014365149 -0.001180807 0.0015907144 -0.0014334401
0001b0 64 aa 29 ba a9 ae b6 3a 85 7f d0 3a 45 e2 bb ba
       -0.00064722286 0.0013937551 0.0015907144 -0.0014334401
0001c0 a7 1f 28 ba a9 ae b6 3a a7 71 6f b9 45 e2 bb ba
       -0.0006413408 0.0013937551 -0.00022835155 -0.0014334401
0001d0 49 eb 00 ba a9 ae b6 3a a7 71 6f b9 7e 25 3a b9
       -0.0004917873 0.0013937551 -0.00022835155 -0.00017752309
0001e0 88 f6 f9 b9 07 7e 2a 3a 26 0e a0 b9 f3 b8 84 37
       -0.0004767666 0.0006503765 -0.0003052812 1.582175e-05
0001f0 0f fb a7 b9 06 7e 2a 3a 26 0e a0 b9 4d de 98 37
       -0.00032039775 0.00065037643 -0.0003052812 1.8223329e-05
000200 0f fb a7 b9 61 25 7e 3a 25 0e a0 b9 4d de 98 37
       -0.00032039775 0.0009694901 -0.00030528117 1.8223329e-05
000210 0f fb a7 b9 61 25 7e 3a 80 8f db b9 49 09 02 3a
       -0.00032039775 0.0009694901 -0.0004187785 0.000496049
000220 e4 a0 35 bb a4 ba a0 ba fc 58 7c 3a 89 b8 10 3a
       -0.0027714306 -0.0012262654 0.0009626297 0.0005520662
000230 e4 a0 35 bb a4 ba a0 ba 49 78 86 3a 89 b8 10 3a
       -0.0027714306 -0.0012262654 0.0010259236 0.0005520662
000240 86 5d 0e 39 a4 ba a0 ba 28 16 a3 3a 89 b8 10 3a
       0.00013577015 -0.0012262654 0.0012442516 0.0005520662
000250 86 5d 0e 39 c4 89 21 3a af d6 37 ba 20 6c 22 3a
       0.00013577015 0.0006162191 -0.00070128863 0.00061959215
000260 f8 7b a3 b9 22 7b be 39 e6 e9 15 ba 20 6c 22 3a
       -0.00031182147 0.00036331365 -0.00057187525 0.00061959215
000270 f8 7b a3 b9 04 67 c0 39 e6 e9 15 ba 4c 11 13 3a
       -0.00031182147 0.00036697846 -0.00057187525 0.00056101824
000280 f8 7b a3 b9 86 bd 15 3a e6 e9 15 ba 4c 11 13 3a
       -0.00031182147 0.000571214 -0.00057187525 0.00056101824
000290 77 bc be ba a5 97 3f ba af de 06 3a 19 fa 3a ba
       -0.0014552017 -0.00073086686 0.0005144877 -0.00071326044
0002a0 88 cd 07 3a 22 1c 4f b9 b0 de 06 3a 19 fa 3a ba
       0.0005180468 -0.00019751539 0.00051448774 -0.00071326044
0002b0 76 93 07 3a 22 1c 4f b9 f9 57 56 39 19 fa 3a ba
       0.00051718147 -0.00019751539 0.00020441403 -0.00071326044
0002c0 76 93 07 3a 22 1c 4f b9 f9 57 56 39 95 ba bc b9
       0.00051718147 -0.00019751539 0.00020441403 -0.0003599717
0002d0 5a e9 1a 3a fb 36 67 3b 72 2c 41 3b 2f 73 89 ba
       0.0005909406 0.0035280574 0.0029475954 -0.0010486598
0002e0 ff 7c 3f bb fb 36 67 3b 72 2c 41 3b 93 1d 59 ba
       -0.002921879 0.0035280574 0.0029475954 -0.00082823
0002f0 ff 7c 3f bb 05 a5 c0 ba 72 2c 41 3b 91 0b 55 ba
       -0.002921879 -0.0014697617 0.0029475954 -0.00081270287
000300 ff 7c 3f bb 05 a5 c0 ba 65 99 15 ba 00 05 39 39
       -0.002921879 -0.0014697617 -0.00057067565 0.00017644837
000310 42 c5 35 ba 4e 13 13 3a fe 67 42 b6 b4 4f 23 ba
       -0.0006933996 0.00056104816 -2.8968784e-06 -0.0006229833
000320 42 c5 35 ba 4e 13 13 3a f4 01 21 37 b4 4f 23 ba
       -0.0006933996 0.00056104816 9.596803e-06 -0.0006229833
000330 e4 fa 25 3a 4e 13 13 3a a2 ac 2c 39 b4 4f 23 ba
       0.0006331636 0.00056104816 0.00016467509 -0.0006229833
000340 e4 fa 25 3a ff c3 21 ba e4 50 80 b9 6a f9 11 ba
       0.0006331636 -0.00061708683 -0.0002447433 -0.00055684766
000350 8e 97 8e 39 6b ec a5 b9 0d 75 24 3a 6a f9 11 ba
       0.00027197268 -0.00031647398 0.00062735454 -0.00055684766
000360 8e 97 8e 39 3f ca a8 b9 0d 75 24 3a b9 c0 0a ba
       0.00027197268 -0.00032194142 0.00062735454 -0.0005293
000370 8e 97 8e 39 3f ca a8 b9 0d 75 24 3a b9 c0 0a ba
       0.00027197268 -0.00032194142 0.00062735454 -0.0005293
000380 10 38 3d 3a d1 b2 81 39 68 64 ab 3a 4f 36 97 3a
       0.0007218132 0.00024738026 0.0013076188 0.0011536571
000390 b8 40 47 ba 03 51 3c bb 68 64 ab 3a 4f 36 97 3a
       -0.00076008914 -0.002873481 0.0013076188 0.0011536571
0003a0 69 b6 30 ba 03 51 3c bb 5c c7 76 ba 4f 36 97 3a
       -0.00067410484 -0.002873481 -0.0009413862 0.0011536571
0003b0 4e 07 d2 b8 03 51 3c bb 5c c7 76 ba e8 dd 2f bb
       -0.00010014941 -0.002873481 -0.0009413862 -0.0026835147
0003c0 82 60 d2 b8 48 4d 0d 38 ab 71 ea 39 04 0c 00 39
       -0.00010031556 3.3688993e-05 0.00044716647 0.00012211507
0003d0 62 99 99 ba 48 4d 0d 38 ab 71 ea 39 43 90 0e 39
       -0.0011718685 3.3688993e-05 0.00044716647 0.00013595917
0003e0 62 99 99 ba da ee 97 3a ab 71 ea 39 7c f9 5e 38
       -0.0011718685 0.0011591569 0.00044716647 5.3161275e-05
0003f0 62 99 99 ba da ee 97 3a b9 59 00 bb 89 5f 81 b8
       -0.0011718685 0.0011591569 -0.001958473 -6.168994e-05

exp_avg_sq f4 [16, 9, 1, 5]
000000 5c b5 4c 37 03 20 2e 38 0e 23 9e 37 e8 74 83 39
       1.2201574e-05 4.1514646e-05 1.8851391e-05 0.0002507337
000010 75 1f ab 38 03 20 2e 38 0e 23 9e 37 06 59 83 39
       8.159775e-05 4.1514646e-05 1.8851391e-05 0.00025052595
000020 75 1f ab 38 9f 7c 63 38 0e 23 9e 37 35 90 7b 37
       8.159775e-05 5.423708e-05 1.8851391e-05 1.4994342e-05
000030 75 1f ab 38 9f 7c 63 38 00 80 65 38 cc a8 f6 36
       8.159775e-05 5.423708e-05 5.4717064e-05 7.351022e-06
000040 12 5e 85 38 1f 35 be 37 71 8d 3e 39 43 fc ba 37
       6.359456e-05 2.2674501e-05 0.00018172503 2.2290396e-05
000050 12 5e 85 38 1f 35 be 37 30 8b 3e 39 43 fc ba 37
       6.359456e-05 2.2674501e-05 0.00018171663 2.2290396e-05
000060 bc 12 de 36 1f 35 be 37 91 2f 29 36 43 fc ba 37
       6.6182965e-06 2.2674501e-05 2.521065e-06 2.2290396e-05
000070 bc 12 de 36 29 ed de 36 a6 48 ee 36 2e 1a fc 37
       6.6182965e-06 6.6437246e-06 7.10141e-06 3.0052932e-05
000080 b0 02 92 37 30 01 31 36 0f 59 60 36 2e 1a fc 37
       1.7405808e-05 2.6375747e-06 3.343044e-06 3.0052932e-05
000090 b0 02 92 37 e3 ea 30 36 0f 59 60 36 6c a5 4c 36
       1.7405808e-05 2.6362766e-06 3.343044e-06 3.0494657e-06
0000a0 b0 02 92 37 e3 ea 30 36 0f 59 60 36 6c a5 4c 36
       1.7405808e-05 2.6362766e-06 3.343044e-06 3.0494657e-06
0000b0 d7 e3 03 37 97 d3 a9 38 23 92 53 39 85 f9 d6 38
       7.861257e-06 8.09796e-05 0.00020176968 0.00010250792
0000c0 9c bf c2 37 09 b4 01 38 23 92 53 39 85 f9 d6 38
       2.3215827e-05 3.0923668e-05 0.00020176968 0.00010250792
0000d0 aa d9 bd 37 09 b4 01 38 49 88 3e 38 85 f9 d6 38
       2.2631913e-05 3.0923668e-05 4.5426455e-05 0.00010250792
0000e0 41 23 d2 37 09 b4 01 38 49 88 3e 38 43 10 93 38
       2.5050367e-05 3.0923668e-05 4.5426455e-05 7.012535e-05
0000f0 18 b2 32 37 7a d2 02 39 d9 e9 b2 38 3d fd ea 38
       1.0651092e-05 0.00012476175 8.531259e-05 0.00011205159
000100 df 7f 52 38 7a d2 02 39 d9 e9 b2 38 6c 05 eb 38
       5.018699e-05 0.00012476175 8.531259e-05 0.00011206683
000110 df 7f 52 38 6b bd 31 38 d9 e9 b2 38 e9 18 74 38
       5.018699e-05 4.2376498e-05 8.531259e-05 5.8197333e-05
000120 df 7f 52 38 6b bd 31 38 81 17 40 37 20 c0 29 37
       5.018699e-05 4.2376498e-05 1.1449564e-05 1.0117918e-05
000130 60 c5 7a 38 bd 8b 9c 38 71 23 6e 38 7d 85 29 38
       5.9788465e-05 7.464688e-05 5.677663e-05 4.041706e-05
000140 60 c5 7a 38 bd 8b 9c 38 85 19 6e 38 7d 85 29 38
       5.9788465e-05 7.464688e-05 5.676739e-05 4.041706e-05
000150 66 5f 2d 38 bd 8b 9c 38 85 19 6e 38 7d 85 29 38
       4.133526e-05 7.464688e-05 5.676739e-05 4.041706e-05
000160 66 5f 2d 38 8d b4 32 37 9a dc fc 38 31 75 7d 38
       4.133526e-05 1.06516645e-05 0.000120573866 6.0429044e-05
000170 ec 79 3d 38 48 70 81 38 65 83 47 39 31 75 7d 38
       4.517466e-05 6.172113e-05 0.00019027067 6.0429044e-05
000180 ec 79 3d 38 16 e8 7a 38 65 83 47 39 76 b3 be 39
       4.517466e-05 5.982079e-05 0.00019027067 0.00036373333
000190 ec 79 3d 38 bb 1c ab 38 65 83 47 39 76 b3 be 39
       4.517466e-05 8.159267e-05 0.00019027067 0.00036373333
0001a0 4a 24 ae 38 17 ff 92 36 ea a2 a5 38 53 0a 8a 38
       8.303726e-05 4.3808354e-06 7.898158e-05 6.582276e-05
0001b0 ad 14 60 38 36 f9 05 39 ea a2 a5 38 53 0a 8a 38
       5.3425018e-05 0.00012776707 7.898158e-05 6.582276e-05
0001c0 d9 27 60 38 36 f9 05 39 c2 4b 23 39 53 0a 8a 38
       5.3442873e-05 0.00012776707 0.00015573113 6.582276e-05
0001d0 bf f0 32 38 36 f9 05 39 c2 4b 23 39 e0 22 af 37
       4.266272e-05 0.00012776707 0.00015573113 2.0877866e-05
0001e0 41 5b 91 36 cd 3d 1b 38 65 15 6d 38 bd f7 25 38
       4.33196e-06 3.7012436e-05 5.652513e-05 3.956979e-05
0001f0 b6 9d f9 38 cd 3d 1b 38 65 15 6d 38 96 f8 25 38
       0.00011902621 3.7012436e-05 5.652513e-05 3.957058e-05
000200 b4 9d f9 38 51 36 1d 39 65 15 6d 38 96 f8 25 38
       0.0001190262 0.00014992921 5.652513e-05 3.957058e-05
000210 b4 9d f9 38 51 36 1d 39 58 fd ac 37 3e 3a bb 38
       0.0001190262 0.00014992921 2.062197e-05 8.927703e-05
000220 51 5f f3 38 70 16 1a 38 bf bc af 37 39 9a 52 37
       0.00011604897 3.6737358e-05 2.0949517e-05 1.2552883e-05
000230 51 5f f3 38 70 16 1a 38 7b 39 b0 37 39 9a 52 37
       0.00011604897 3.6737358e-05 2.1007601e-05 1.2552883e-05
000240 cd 90 9c 37 70 16 1a 38 c2 3d 3b 37 39 9a 52 37
       1.8664077e-05 3.6737358e-05 1.1160448e-05 1.2552883e-05
000250 cd 90 9c 37 ad 20 30 38 b4 ad 42 37 f2 7f e5 38
       1.8664077e-05 4.19921e-05 1.16037445e-05 0.000109434026
000260 d8 47 8b 38 ff d6 52 38 4d a3 23 38 f2 7f e5 38
       6.6414184e-05 5.0268132e-05 3.9014314e-05 0.000109434026
000270 d8 47 8b 38 e1 d7 52 38 4d a3 23 38 f1 19 81 38
       6.6414184e-05 5.0268955e-05 3.9014314e-05 6.156031e-05
000280 d8 47 8b 38 12 e9 0c 38 4d a3 23 38 f1 19 81 38
       6.6414184e-05 3.3595665e-05 3.9014314e-05 6.156031e-05
000290 a1 54 c9 37 00 88 2d 37 fc bc 3d 38 f4 58 6a 38
       2.4000476e-05 1.03432685e-05 4.5237117e-05 5.587279e-05
0002a0 52 50 0a 38 7b fb 11 38 fc bc 3d 38 f4 58 6a 38
       3.2976568e-05 3.4804903e-05 4.5237117e-05 5.587279e-05
0002b0 1f 49 0a 38 7b fb 11 38 ae f4 73 38 f4 58 6a 38
       3.2969863e-05 3.4804903e-05 5.816359e-05 5.587279e-05
0002c0 1f 49 0a 38 7b fb 11 38 ae f4 73 38 ab b9 b6 37
       3.2969863e-05 3.4804903e-05 5.816359e-05 2.1782549e-05
0002d0 62 2e e3 38 9b 2e 67 39 79 6f c0 38 94 ba ac 37
       0.00010832843 0.00022047239 9.176037e-05 2.059088e-05
0002e0 64 5f 98 38 9b 2e 67 39 79 6f c0 38 00 49 aa 37
       7.265693e-05 0.00022047239 9.176037e-05 2.0299572e-05
0002f0 64 5f 98 38 f0 5b b8 38 79 6f c0 38 36 a1 e5 37
       7.265693e-05 8.7909284e-05 9.176037e-05 2.7373997e-05
000300 64 5f 98 38 f0 5b b8 38 7f d6 12 39 d3 f4 08 37
       7.265693e-05 8.7909284e-05 0.00014003551 8.163234e-06
000310 24 a6 1a 39 aa 00 cb 38 bd c5 64 38 72 d9 1e 37
       0.00014748477 9.679918e-05 5.4543594e-05 9.468162e-06
000320 24 a6 1a 39 aa 00 cb 38 88 b6 64 38 72 d9 1e 37
       0.00014748477 9.679918e-05 5.452943e-05 9.468162e-06
000330 74 d5 84 36 aa 00 cb 38 5a 58 3a 38 72 d9 1e 37
       3.9587558e-06 9.679918e-05 4.442814e-05 9.468162e-06
000340 74 d5 84 36 3b c6 2a 37 61 69 06 37 fe 1f 85 38
       3.9587558e-06 1.0178944e-05 8.011558e-06 6.347893e-05
000350 b6 f7 a9 38 45 39 2b 38 e7 cf 06 37 fd 1f 85 38
       8.104688e-05 4.0822913e-05 8.035428e-06 6.3478925e-05
000360 b6 f7 a9 38 39 46 2b 38 e7 cf 06 37 10 bc 80 36
       8.104688e-05 4.0834977e-05 8.035428e-06 3.8365906e-06
000370 b6 f7 a9 38 39 46 2b 38 e7 cf 06 37 10 bc 80 36
       8.104688e-05 4.0834977e-05 8.035428e-06 3.8365906e-06
000380 ed 28 2d 37 69 0d 2f 38 c0 87 23 38 c9 2e 7d 37
       1.0321132e-05 4.173574e-05 3.8988655e-05 1.5090868e-05
000390 4c a1 ec 37 8f 1a 4b 38 c0 87 23 38 c9 2e 7d 37
       2.8208502e-05 4.8423706e-05 3.8988655e-05 1.5090868e-05
0003a0 8b 85 eb 37 8f 1a 4b 38 76 53 9e 38 c9 2e 7d 37
       2.8076369e-05 4.8423706e-05 7.549573e-05 1.5090868e-05
0003b0 2e 98 a6 37 8f 1a 4b 38 76 53 9e 38 e1 8d 86 39
       1.9859606e-05 4.8423706e-05 7.549573e-05 0.0002566418
0003c0 2b ff ae 36 bc 35 93 37 76 f1 b1 36 97 de 74 37
       5.2153096e-06 1.7548788e-05 5.303121e-06 1.4595359e-05
0003d0 91 b0 3c 37 bc 35 93 37 76 f1 b1 36 db 02 75 37
       1.1246783e-05 1.7548788e-05 5.303121e-06 1.4603803e-05
0003e0 91 b0 3c 37 45 bd 31 37 76 f1 b1 36 09 14 cb 36
       1.1246783e-05 1.059409e-05 5.303121e-06 6.052204e-06
0003f0 91 b0 3c 37 45 bd 31 37 80 12 b3 37 40 24 9d 36
       1.1246783e-05 1.059409e-05 2.1347078e-05 4.6831847e-06

exp_avg f4 [16]
000000 3a 67 39 30 88 96 0d 31 ca 9c 0e b2 32 34 48 b1
       6.74493e-10 2.0603768e-09 -8.3011376e-09 -2.91335e-09
000010 62 4a 9f b2 b6 f5 6e b1 db 1d 04 33 10 0c 11 af
       -1.8543862e-08 -3.4773229e-09 3.07608e-08 -1.3191959e-10
000020 92 d2 19 32 e1 35 0f 31 30 22 44 b2 67 50 6d af
       8.95365e-09 2.0839865e-09 -1.1416475e-08 -2.1583589e-10
000030 bc 8f b3 b1 99 9a 2f b2 7b b9 6e 31 b4 71 44 af
       -5.2259264e-09 -1.0221492e-08 3.4738992e-09 -1.7866492e-10

exp_avg_sq f4 [16]
000000 9f b2 2f 27 ac c8 9f 26 72 be 6a 27 3d 42 4b 28
       2.438296e-15 1.1087234e-15 3.2577264e-15 1.1283127e-14
000010 35 1e b4 28 eb a1 81 27 a1 2a 07 28 a9 fe 62 23
       1.9997115e-14 3.5980244e-15 7.503249e-15 1.2305411e-17
000020 81 82 41 26 f8 82 03 24 13 8d 3b 27 a0 a3 31 26
       6.713719e-16 2.8517032e-17 2.602794e-15 6.1630964e-16
000030 43 41 ee 25 4a f0 b3 26 71 d0 6a 26 c6 8b bb 25
       4.1330642e-16 1.2485751e-15 8.146755e-16 3.2534043e-16

exp_avg f4 [16]
000000 c1 dd 25 3c 1c 90 aa 3c f0 28 b1 3c ac f6 9f 3c
       0.010123671 0.02082067 0.021625966 0.019526802
000010 52 9d 92 bc b8 d3 06 bb e5 a5 43 bc 6d 1c 88 3d
       -0.017897282 -0.0020572972 -0.011941408 0.06646047
000020 f3 27 6e bc 35 fc b4 bd da 6a 15 bc 09 9a 9e bb
       -0.014535892 -0.08837167 -0.009119714 -0.0048401398
000030 2e 30 1a 3c 13 39 73 bc ae 6a b5 3c 5e 3a 97 bc
       0.009410901 -0.0148451505 0.022145595 -0.018460449

exp_avg_sq f4 [16]
000000 e1 0c 32 3a 14 73 8c 3b 92 b4 9e 3b eb 68 4e 3b
       0.000679208 0.0042861793 0.004843303 0.0031495641
000010 0a 93 7d 3b 33 5f cd 38 77 06 6b 3a 8a 04 bd 3c
       0.0038692378 9.792894e-05 0.0008965502 0.023073453
000020 22 85 15 3b 79 17 3e 3d e2 d1 9b 3a 48 e4 71 39
       0.002281495 0.046409104 0.0011888111 0.00023068592
000030 6c 2e 33 3a 16 fb 03 3b 4d 54 85 3b 80 8d 1d 3b
       0.00068352255 0.0020138673 0.0040688873 0.002404064

exp_avg f4 [16]
000000 15 e1 45 3c 94 76 21 3c a2 f3 46 3c 22 84 99 3b
       0.0120775895 0.009854931 0.0121430475 0.004684941
000010 ba c8 c3 bb d1 ed f8 bb bb 71 72 bc 75 ed b8 3b
       -0.005974856 -0.0075967093 -0.014797623 0.0056435415
000020 f4 8a 7e 3a 9a bd a6 bb 18 7b 6e bb 4c 99 7b ba
       0.00097100367 -0.0050885202 -0.0036389288 -0.0009597733
000030 24 35 e5 3b 89 84 d4 bb 35 6c a4 3c c7 29 8e bc
       0.0069948602 -0.006485526 0.020071128 -0.017353905

exp_avg_sq f4 [16]
000000 c3 39 02 3b b2 dd fe 3b 47 81 14 3c c5 66 a5 3b
       0.0019870854 0.007777893 0.009064025 0.0050476515
000010 0a 08 ea 3b 9f 02 b9 39 3d ef 0b 3b 19 83 95 3a
       0.0071420716 0.00035287903 0.0021352314 0.0011406868
000020 e9 80 a7 3b 83 f8 7e 3b 7a 0e 24 3b 86 4a 59 39
       0.005111803 0.0038905449 0.0025033043 0.00020722495
000030 b5 b5 a7 3a db 15 22 3b f8 a0 8f 3b ed d1 3c 3b
       0.0012795242 0.0024732265 0.0043832026 0.002881165

exp_avg f4 [16, 8, 1, 5]
000000 e5 5c 34 3a 36 24 41 3a e6 58 ab 38 d3 06 ee 39
       0.00068802974 0.00073677616 8.170474e-05 0.00045399982
000010 8c 01 b5 39 41 18 13 3b c9 e7 ce 3a 24 a0 18 3a
       0.00034524163 0.0022444876 0.001578563 0.00058222027
000020 54 6a 4b 3a e9 40 60 3a 69 1d 13 3b 8d 58 f7 3a
       0.00077596796 0.0008554594 0.002244795 0.0018870995
000030 25 88 a0 3a 45 18 86 3a 0a b2 80 3a 04 d5 d5 39
       0.0012247605 0.0010230622 0.0009818685 0.00040785235
000040 2d a9 09 3a 89 4f ad 39 65 fa 06 39 c7 38 a7 b7
       0.00052513444 0.0003305639 0.00012872515 -1.993439e-05
000050 6e 6c ae 3a e8 c0 9c 3a b2 11 53 3a bc c0 3b 3a
       0.0013307461 0.0011959346 0.0008051648 0.00071622035
000060 46 c0 64 3a 38 e3 31 3b e8 4d d8 3a 90 d7 09 3a
       0.0008726161 0.002714349 0.001650271 0.00052582566
000070 b5 55 09 39 1c 06 95 b7 b2 81 f5 3a 53 dc d6 3a
       0.00013097266 -1.7765029e-05 0.0018730669 0.0016392566
000080 44 aa 58 3a c4 1c 65 3a be 2b 9e 3a 1a 15 2a bb
       0.00082651176 0.0008739943 0.001206748 -0.002595252
000090 eb 0e 52 bb 53 94 59 bb f8 7c df ba 6e 7f e5 39
       -0.0032052349 -0.003319998 -0.0017050793 0.00043773226
0000a0 68 31 fd 39 eb e3 0e ba 3d c8 7b b9 68 1a bf ba
       0.0004829273 -0.00054508325 -0.0002401182 -0.0014580013
0000b0 e6 85 6a ba 48 e9 db 39 0c b0 40 3a 22 00 19 ba
       -0.0008946344 0.00041944743 0.0007350452 -0.00058365066
0000c0 88 ac 05 39 c5 d5 3d 39 34 43 3c 39 58 15 e6 39
       0.00012748141 0.0001810408 0.00017954112 0.0004388492
0000d0 aa 7e 0f ba a8 67 bf b9 71 25 2f 39 98 73 ae b8
       -0.00054738915 -0.0003650759 0.00016703249 -8.3184976e-05
0000e0 68 d8 2c ba 51 4f 8b ba af 33 b2 ba 31 25 ac b9
       -0.00065935263 -0.0010628497 -0.0013595725 -0.00032834106
0000f0 55 70 c2 b9 ed 44 e8 37 4c b2 b8 ba 57 b8 a8 ba
       -0.00037086257 2.7688651e-05 -0.0014091223 -0.001287232
000100 8f 5f 2c ba 73 87 19 3b 91 de 25 3b ed f2 00 3b
       -0.00065755186 0.0023426681 0.0025309662 0.0019676045
000110 e8 3c 91 3a 90 33 0f 3b db 30 b1 39 84 75 09 b9
       0.0011080774 0.0021850802 0.0003379647 -0.00013109116
000120 f1 ce 12 ba 43 b8 95 ba b1 0d 7b 39 35 cf 93 3b
       -0.00056002947 -0.0011422712 0.00023942326 0.004510785
000130 34 ee b7 3b 3a 71 4f 3c d0 b0 85 3c 30 2d 26 3c
       0.005613113 0.012661273 0.016319662 0.0101426095
000140 cb 1f 72 3a 9f ec 6b 3a fe 9c 3b 3a a3 7c 92 3a
       0.0009236305 0.0008999798 0.00071568775 0.0011176061
000150 0d 0f d6 3a b4 4c 96 3a b0 08 5f 3a d4 a5 7d 3a
       0.001633139 0.0011466951 0.00085080694 0.00096758944
000160 e9 ac 96 3a 7a f8 e7 3a 26 c7 88 3a eb fc 93 3a
       0.0011495623 0.0017697953 0.0010435327 0.0011290585
000170 9a f3 58 3a 65 11 a7 3a 8b ed cc 3a dd 23 2f 3a
       0.00082760456 0.0012746273 0.0015634758 0.0006681064
000180 19 a6 43 3a 28 d0 27 3a d4 5a e7 3a 08 1a c7 3a
       0.000746341 0.0006401562 0.001765097 0.0015190253
000190 9c 08 c3 3a 8f 42 4d 3a 68 d4 63 3a fd ce cd 3a
       0.0014879885 0.00078300474 0.0008691014 0.0015701946
0001a0 81 73 0b 3b b0 17 a6 3a 16 d9 14 3b 7e 6f 41 bb
       0.0021278562 0.0012671854 0.00227124 -0.0029515917
0001b0 17 bf 81 ba b5 16 9c 3a 80 2f 7e 3a 24 48 9c 3a
       -0.0009898868 0.0011908623 0.0009696409 0.0011923355
0001c0 90 45 6b 3a d6 f6 f7 3a 18 db c1 3a 7d e2 77 ba
       0.0008974904 0.0018918167 0.0014790026 -0.00094560516
0001d0 dd 16 21 bb 59 6c 4d bb ff d6 0c bc 51 37 3b bc
       -0.0024580278 -0.0031345098 -0.008596181 -0.011426763
0001e0 3c 63 1a b9 b7 10 ca b9 17 3e 91 b9 55 61 d7 38
       -0.00014723552 -0.00038540896 -0.00027702816 0.000102701284
0001f0 16 01 87 39 ee de a9 3a 62 b2 fc 39 04 dd f2 39
       0.00025750016 0.0012960115 0.0004819809 0.00046322506
000200 4e 8f dc 3a 87 2f c1 3a fb de 74 3a a6 1b d6 39
       0.0016827376 0.0014738896 0.0009341088 0.0004083786
000210 9d 4e 09 b8 2a 30 b7 3a b8 ed fa 3a c7 51 a6 b9
       -3.273656e-05 0.0013976146 0.0019144332 -0.00031722916
000220 cc 40 c5 b9 43 96 87 b7 7b 81 e6 b7 fb 51 04 39
       -0.00037623046 -1.6163225e-05 -2.747843e-05 0.00012619041
000230 f8 3b 98 b9 ee 85 1c b9 e7 e5 4c b9 6c b3 7b 39
       -0.0002903638 -0.00014927212 -0.00019540601 0.00024004065
000240 bd 45 07 3a d0 9e 81 3b b5 af 11 3b c3 87 51 3a
       0.0005160233 0.0039556995 0.0022229974 0.00079929474
000250 8a e8 61 3b 7b 39 58 3b d8 0d e0 39 d0 82 05 b8
       0.003447088 0.0032993245 0.00042734924 -3.18315e-05
000260 3d 60 07 b9 bc d2 29 3a d5 95 af 3a 61 3e 17 3b
       -0.00012910455 0.000647824 0.0013396094 0.0023077952
000270 71 69 7c 3b 3d 32 2b 3b 01 09 05 3b 67 71 a9 3a
       0.0038514996 0.0026122474 0.0020299556 0.0012927473
000280 31 98 e0 39 56 30 9a 39 ce e8 8f 38 49 30 6c 38
       0.00042838 0.00029409182 6.8621346e-05 5.6311754e-05
000290 d9 a0 63 38 e1 54 41 3a 3e c2 bc b9 58 47 74 39
       5.427082e-05 0.00073750137 -0.00036002876 0.00023296231
0002a0 a7 42 ef 39 3c 96 0e b9 b3 8b 74 3a 6b cc 25 38
       0.00045635292 -0.00013598142 0.0009328678 3.9529445e-05
0002b0 50 0d 42 b9 fd 5b cb 39 47 b6 00 39 1c aa 65 39
       -0.00018506241 0.00038787714 0.00012274935 0.00021902513
0002c0 f6 82 90 b6 74 d5 03 39 c6 74 68 38 72 80 db b9
       -4.3067803e-06 0.00012572651 5.5421864e-05 -0.00041866634
0002d0 5b 7a 74 3a 53 1a 5a b9 91 ea 01 b9 bd 03 e1 39
       0.0009326094 -0.00020799907 -0.00012389781 0.0004291813
0002e0 ed 5d 87 b9 d2 a4 bc 3a 8c 28 0e b9 a7 72 92 b9
       -0.00025819187 0.0014392382 -0.0001355728 -0.00027932713
0002f0 d4 ac 7c 36 c8 55 22 38 51 a6 1e 3a f8 5b 67 37
       3.7651525e-06 3.87037e-05 0.0006052005 1.3790086e-05
000300 5c bb 01 b8 ad 39 df 39 a2 c1 a3 b8 e8 44 b2 bb
       -3.093049e-05 0.00042576846 -7.8085126e-05 -0.005440343
000310 b6 f6 0d 3a 34 de 8b 3a db cc 98 ba aa 36 64 3b
       0.0005415486 0.001067108 -0.0011657731 0.0034822621
000320 77 4c 4b 3a 78 04 86 3a f7 2c 90 3a 6a b9 84 39
       0.00077552296 0.001022472 0.0010999729 0.00025315146
000330 78 a2 fd b8 4c 1c a8 3a 6b a8 95 3a 55 8f ad 38
       -0.00012094242 0.0012825816 0.001141799 8.2759805e-05
000340 a8 42 f7 b9 f8 2e 48 ba ad 16 df 3a f4 2b b5 3a
       -0.00047161174 -0.00076363934 0.0017020308 0.0013822303
000350 93 8e b7 39 32 18 ce b8 ee 60 06 ba 88 86 32 3a
       0.00035010706 -9.827352e-05 -0.0005126138 0.0006810208
000360 b5 81 6f 3a 63 34 cb 39 73 d1 b1 38 50 7f 01 ba
       0.00091364543 0.00038758208 8.479031e-05 -0.00049399305
000370 4e 6b d4 3a 67 0d c0 3a 8a 2f 78 3a 6b db c4 39
       0.0016206296 0.0014652432 0.0009467533 0.00037547512
000380 f8 ac aa b8 a3 3d ae 3a 8f 6a 88 3a 7c 49 be ba
       -8.1384496e-05 0.0013293516 0.0010407733 -0.001451775
000390 5f 65 f4 ba 00 dc 12 bb 7c 0f e0 3a 0b 18 c2 3a
       -0.0018645934 -0.0022408962 0.0017094458 0.0014808191
0003a0 2b f4 27 3a 3b bf 7a 39 ea 5f bd b9 7e b9 57 bb
       0.00064069283 0.00023913097 -0.0003612035 -0.0032916958
0003b0 ba f6 fc bb 73 3f f8 bb d6 8c 40 bb 51 f8 f6 3a
       -0.007719842 -0.007575923 -0.002938082 0.0018842315
0003c0 73 1b 37 b9 a4 43 12 ba 37 99 d1 ba 3e af 70 ba
       -0.00017462466 -0.0005579537 -0.0015991096 -0.00091813866
0003d0 7f 13 96 ba 7f 8c c7 ba b8 88 c1 ba 6b 1e 33 ba
       -0.0011449902 -0.0015224366 -0.0014765477 -0.0006832841
0003e0 b5 76 19 bb 80 74 79 bb c4 58 e0 ba 28 a9 d7 ba
       -0.0023416702 -0.0038063824 -0.0017116298 -0.0016453611
0003f0 75 08 57 ba 2c a9 11 bb 52 13 3f bb b0 04 db b9
       -0.00082028593 -0.0022226078 -0.0029155803 -0.00041774428

exp_avg_sq f4 [16, 8, 1, 5]
000000 91 b0 34 37 5e 39 36 37 40 ec 51 37 d8 be e2 36
       1.0769946e-05 1.0861402e-05 1.2512377e-05 6.757542e-06
000010 a9 5a 5b 36 d7 10 66 38 ae 79 66 38 a3 44 94 37
       3.2686314e-06 5.4851957e-05 5.4949596e-05 1.7674936e-05
000020 58 14 d8 36 8e 46 e0 36 f9 cf 72 38 9e 4f 55 38
       6.43967e-06 6.683934e-06 5.7890986e-05 5.0857307e-05
000030 c4 f0 c6 37 2c 7e 2f 37 72 a2 f7 36 11 c9 ef 36
       2.3715555e-05 1.04601895e-05 7.3800848e-06 7.1461623e-06
000040 cc 26 1e 37 51 e2 f8 36 67 3e a6 36 a8 c5 42 36
       9.426567e-06 7.4173226e-06 4.95445e-06 2.9023304e-06
000050 0a 88 95 37 c2 43 d4 37 81 7c 9c 37 25 70 e5 36
       1.7825532e-05 2.5303922e-05 1.8654626e-05 6.837787e-06
000060 22 2d 86 36 6b c7 87 39 d7 38 51 39 9a 6f 49 38
       3.9987654e-06 0.00025897785 0.00019952968 4.802607e-05
000070 ef 2f c8 37 3a 5f 63 37 65 89 05 38 90 7f 07 38
       2.3864179e-05 1.3552426e-05 3.183763e-05 3.230531e-05
000080 5f 0e 9b 37 4a 93 de 36 80 60 be 36 3c e5 01 3a
       1.8484132e-05 6.6332623e-06 5.6736753e-06 0.0004955118
000090 3d 8b 5c 3a b7 c1 68 3a cd dc 5c 3a 3f c1 30 3a
       0.0008413082 0.00088789634 0.0008425236 0.0006742663
0000a0 6a 09 5c 37 d5 e7 1f 37 a7 5d ce 37 69 52 74 37
       1.3115214e-05 9.531116e-06 2.4600724e-05 1.4562721e-05
0000b0 4a cf b1 36 87 74 a2 37 20 67 1b 37 ad 78 a5 36
       5.2991427e-06 1.9366167e-05 9.262731e-06 4.9314317e-06
0000c0 35 1b 91 36 ed a7 76 37 d2 5b 87 37 49 7e 16 37
       4.324504e-06 1.4701841e-05 1.6136011e-05 8.9701e-06
0000d0 87 82 f9 36 01 35 e9 35 e8 fe 21 37 8e 05 26 37
       7.4359737e-06 1.7375279e-06 9.655698e-06 9.895664e-06
0000e0 c0 d4 8c 37 e3 1d 75 37 a8 10 f8 36 1e 6f f8 36
       1.678837e-05 1.46100965e-05 7.392915e-06 7.4039117e-06
0000f0 89 bf 51 37 b1 95 3d 37 2f 33 af 37 dc 44 1f 37
       1.2501966e-05 1.1300131e-05 2.088546e-05 9.493171e-06
000100 d9 96 e3 36 b5 0b 00 39 3d 5f f8 38 c3 ea 10 38
       6.782688e-06 0.00012211392 0.00011843301 3.4550914e-05
000110 b7 92 ba 37 b9 bd 71 38 1a 60 34 37 ae 78 08 37
       2.2241247e-05 5.763557e-05 1.0751211e-05 8.13433e-06
000120 1c 5d 04 37 ae a9 97 36 12 8d 2e 37 46 7f 61 3a
       7.889492e-06 4.519904e-06 1.0404054e-05 0.0008602034
000130 a5 3e 8e 3a 9e a6 f8 3a f3 af bf 3a 2d 2e 36 3a
       0.001085241 0.0018970554 0.001462458 0.000694963
000140 fc bd 05 38 0d 2e 9d 37 68 8f 88 37 a5 5c a8 37
       3.1886608e-05 1.8737303e-05 1.6279242e-05 2.0070302e-05
000150 0f 58 3a 38 8a 21 5d 39 a5 a5 43 39 d9 fe 9d 38
       4.4427867e-05 0.00021088697 0.00018658357 7.5338125e-05
000160 f6 54 10 39 21 d3 68 39 fb d7 4a 39 fe f3 23 39
       0.0001376456 0.00022203896 0.0001934468 0.00015635786
000170 3f 5a 87 38 ad 54 fb 38 60 b5 53 39 c3 e8 2f 37
       6.454111e-05 0.00011984385 0.00020190096 1.0485007e-05
000180 52 4c 0d 37 20 ea 01 37 de 3b de 37 d0 98 83 38
       8.422025e-06 7.743511e-06 2.649234e-05 6.27503e-05
000190 74 14 72 38 f3 a4 0c 38 fb fd 88 37 04 5e 22 38
       5.7716345e-05 3.3532222e-05 1.6330732e-05 3.871137e-05
0001a0 3a f9 ca 38 09 05 cf 3a 7f fb c1 3a 4b dc 55 39
       9.678533e-05 0.0015794347 0.0014799683 0.00020395328
0001b0 b7 61 d2 39 d1 0d 2d 3a 02 42 c3 38 84 3b 87 38
       0.00040127125 0.0006601485 9.3106195e-05 6.448387e-05
0001c0 25 02 15 38 d9 85 ab 38 ef 0c 18 39 11 24 c0 39
       3.5526366e-05 8.1788465e-05 0.00014500668 0.00036647965
0001d0 75 28 2e 3a 53 01 3e 3a e9 03 66 3a 5f 27 23 3b
       0.0006643602 0.0007248122 0.00087743864 0.0024895293
0001e0 f0 89 69 37 f3 f7 41 37 3c 0f b2 37 4a 6c 7f 36
       1.3919998e-05 1.1561427e-05 2.1226348e-05 3.8060994e-06
0001f0 58 ff 14 36 d9 87 59 38 91 9b 31 38 2a f5 0f 38
       2.2202348e-06 5.186335e-05 4.234497e-05 3.4322184e-05
000200 b7 22 1b 38 f2 29 26 38 a8 91 44 38 86 73 1e 38
       3.698721e-05 3.961655e-05 4.6865694e-05 3.7777725e-05
000210 8a 1d 0d 38 e5 ec 05 38 fd 88 0c 38 84 82 03 37
       3.364453e-05 3.1930296e-05 3.350618e-05 7.8385965e-06
000220 60 81 00 37 9b 0a 28 36 fb c9 9e 35 1a 61 9d 35
       7.659517e-06 2.5040124e-06 1.1830701e-06 1.1725672e-06
000230 77 6a 95 37 cb da 88 37 ea dd 3e 37 e9 0f f3 36
       1.781176e-05 1.6314347e-05 1.1376551e-05 7.2438165e-06
000240 93 31 e6 36 ff a3 f1 39 af eb a4 39 a7 38 30 39
       6.8603053e-06 0.0004608929 0.00031456116 0.00016805773
000250 3e b0 43 39 8d 1a 3a 39 a4 77 b6 37 bb 2a c3 37
       0.00018662305 0.00017748233 2.1751803e-05 2.326571e-05
000260 d7 0a 94 37 b5 8c 82 37 0d 05 88 37 39 a4 15 3a
       1.7648023e-05 1.556273e-05 1.6214815e-05 0.000570837
000270 3c 6d 01 3a 83 e5 4c 39 a5 53 1c 39 e3 5f 3c 38
       0.00049372367 0.00019540456 0.0001490848 4.4911994e-05
000280 9a a3 c1 36 87 f0 8a 36 2a 77 24 37 dd 57 39 36
       5.770894e-06 4.1407216e-06 9.802907e-06 2.7618291e-06
000290 6f 46 94 36 df e5 34 37 6c f2 e6 36 f9 8d 85 36
       4.4189433e-06 1.0782357e-05 6.8827558e-06 3.9802367e-06
0002a0 12 d3 33 37 7d 48 a6 37 73 4c 14 37 54 05 ae 36
       1.0718375e-05 1.9822497e-05 8.839287e-06 5.1862244e-06
0002b0 1f 0d 50 36 9c f8 e8 36 fe 3f 8b 37 10 84 b4 36
       3.1002053e-06 6.9430807e-06 1.659989e-05 5.379792e-06
0002c0 e0 16 b7 36 6a 04 72 36 71 06 ac 36 37 ff e8 36
       5.456488e-06 3.606338e-06 5.1267493e-06 6.9438497e-06
0002d0 3a f2 f3 36 79 50 cc 36 d2 8c 8d 36 10 b4 b8 36
       7.270163e-06 6.089042e-06 4.218521e-06 5.5045894e-06
0002e0 ee 12 14 37 65 1f c8 38 9a 48 be 38 b5 a7 c4 37
       8.825895e-06 9.542591e-05 9.073429e-05 2.3443115e-05
0002f0 4a 52 03 38 99 ec 95 38 74 3d b2 36 6f 6b 5c 36
       3.130947e-05 7.1489434e-05 5.3119675e-06 3.284509e-06
000300 e3 37 0b 36 76 fe f5 36 9f ee 4c 37 56 72 f0 39
       2.0745144e-06 7.331192e-06 1.2214906e-05 0.00045861554
000310 b0 29 e7 39 af 65 eb 39 56 8d e5 39 eb 67 f4 39
       0.00044090813 0.00044898453 0.00043783587 0.00046616732
000320 db 8d f3 36 ff 7f 81 37 a8 07 56 38 ec ae 2f 38
       7.2584785e-06 1.5437601e-05 5.1028706e-05 4.188616e-05
000330 16 e6 85 37 61 30 83 37 0e 56 45 38 68 b6 a6 38
       1.5961978e-05 1.5638945e-05 4.7048605e-05 7.949473e-05
000340 4f fa 92 38 a1 e3 70 38 92 3a 42 37 1a 7d fe 37
       7.008446e-05 5.7432455e-05 1.1576938e-05 3.0337415e-05
000350 b5 87 b9 38 9b 70 84 38 18 7b 42 38 50 1d 88 37
       8.846765e-05 6.315225e-05 4.6367844e-05 1.6226113e-05
000360 b5 eb 1a 38 19 64 31 38 db 0f f5 37 22 24 b7 37
       3.693598e-05 4.229331e-05 2.921366e-05 2.1832126e-05
000370 c3 23 f5 36 21 4a c6 37 4b c8 86 38 6e 6b fa 37
       7.305732e-06 2.3637958e-05 6.4269254e-05 2.9852348e-05
000380 31 ff 71 37 04 18 e3 38 76 a5 4b 39 76 02 98 39
       1.4424136e-05 0.00010828677 0.00019421228 0.00028993533
000390 be 53 09 3a d3 c1 01 3a ab 41 0f 37 65 ae ed 37
       0.0005238614 0.00049498415 8.538754e-06 2.833381e-05
0003a0 b1 24 33 38 ba 70 0a 38 9c bd a5 37 52 bc 12 3b
       4.2711097e-05 3.300675e-05 1.9757827e-05 0.002239008
0003b0 a4 37 7d 3b 70 2d c2 3b be 98 b1 3b 56 6c 8e 3b
       0.00386379 0.0059258267 0.0054198196 0.0043464107
0003c0 ce e3 60 37 89 1f 13 37 5c 89 ff 37 ca ea c5 37
       1.340448e-05 8.769225e-06 3.0462332e-05 2.3593562e-05
0003d0 fa 63 19 38 bf 14 8e 38 d9 9b 89 38 c5 5e 9b 38
       3.6571153e-05 6.774952e-05 6.561698e-05 7.408628e-05
0003e0 a7 61 17 39 6b 36 32 39 a4 df 88 38 c8 35 82 38
       0.0001443686 0.00016995675 6.526642e-05 6.2089006e-05
0003f0 e3 bf 9b 38 79 fe 01 39 8f b9 22 39 b2 f5 94 36
       7.426718e-05 0.00012397197 0.0001551865 4.4393464e-06

exp_avg f4 [16]
000000 8a b0 bd b2 36 9d 4a 31 d1 82 85 b2 b3 46 8e b2
       -2.2082776e-08 2.9484233e-09 -1.5542726e-08 -1.6563126e-08
000010 27 0b cb 30 05 56 db b2 ec 79 35 b2 f9 9a 8a b1
       1.4773364e-09 -2.5534073e-08 -1.05633085e-08 -4.033947e-09
000020 4a f5 b3 b1 e4 d7 e3 31 53 95 f4 b2 90 ba 40 31
       -5.237472e-09 6.6311134e-09 -2.8473243e-08 2.8045726e-09
000030 56 dc c2 32 b6 2a 8a 30 4e f1 e8 b0 e8 22 cb 30
       2.268477e-08 1.0052961e-09 -1.6948805e-09 1.4780115e-09

exp_avg_sq f4 [16]
000000 c1 77 d9 27 88 22 93 25 3e 82 f8 28 58 41 87 28
       6.0359437e-15 2.5523834e-16 2.7590015e-14 1.501635e-14
000010 3c 73 d4 25 c0 91 e0 28 45 9f db 28 55 05 23 26
       3.6854224e-16 2.4932205e-14 2.4382956e-14 5.655921e-16
000020 b5 7e d7 28 d5 08 2c 26 a3 ff 18 28 c5 cd bd 26
       2.3924745e-14 5.9686457e-16 8.493127e-15 1.3170283e-15
000030 46 0d 90 28 d4 73 08 26 04 34 8d 25 b4 0b b3 26
       1.5992968e-14 4.7341455e-16 2.4494848e-16 1.2423792e-15

exp_avg f4 [16]
000000 c4 ac 7e 3b 48 03 88 3b 38 f9 5c 3c 3a 96 b4 bb
       0.00388603 0.004150782 0.013487153 -0.0055110725
000010 a9 92 b7 3b 20 81 df 3b 63 22 53 b9 d8 f7 7e bc
       0.0056022 0.006820813 -0.00020135338 -0.01556202
000020 e3 4a 49 3a 3b 27 71 3c 98 3b 44 bb 3b 75 9e bb
       0.00076787005 0.014718826 -0.0029942747 -0.0048357523
000030 47 32 bc ba 5f 57 83 3c 56 08 95 bc 32 d9 23 bc
       -0.0014358246 0.016032873 -0.018192451 -0.010000514

exp_avg_sq f4 [16]
000000 33 f7 6a 39 8c ef 35 3a 73 c8 b7 3a 9a bb ae 39
       0.00022408068 0.00069402973 0.001402153 0.0003332764
000010 ce 47 20 3a d8 c9 05 3b dd 9f ec 38 e8 67 90 3a
       0.00061142154 0.0020414498 0.00011283134 0.0011017295
000020 17 08 4b 39 f1 a7 cd 3a d5 3e cb 39 43 b1 5e 39
       0.00019362602 0.0015690309 0.0003876599 0.00021237605
000030 f8 88 88 3a 7a 24 c4 3a e8 c8 04 3b df 79 25 3a
       0.0010416796 0.0014964484 0.002026135 0.00063124107

exp_avg f4 [16]
000000 ba a8 f1 3a a5 ee 0b bb 9b e2 19 3b f7 96 38 ba
       0.0018437125 -0.002135196 0.0023481015 -0.00070415385
000010 62 c3 b9 3a 64 f0 4d 3b 32 13 61 36 fd 64 b6 bb
       0.0014172608 0.0031423802 3.3538786e-06 -0.005566238
000020 e2 8d bf 3a 08 a5 2c b6 ba 4c b3 ba df a9 25 bb
       0.0014614428 -2.5726058e-06 -0.0013679483 -0.0025278253
000030 5f 12 0f 3b 53 15 7f 3a 15 90 dc ba b2 f1 57 bb
       0.0021831018 0.00097306556 -0.0016827608 -0.0032950458

exp_avg_sq f4 [16]
000000 3f ef 3e 39 8a d6 69 39 59 e9 06 3a f1 5f e4 39
       0.00018208938 0.00022300534 0.0005146466 0.0004355903
000010 ac b9 2a 39 99 21 38 3a de 31 ae 39 3e 5e 2c 39
       0.00016281632 0.00070240494 0.0003322502 0.00016438306
000020 32 69 4b 39 20 24 f6 38 61 69 bc 38 2f 53 7e 39
       0.00019398777 0.00011736923 8.984167e-05 0.00024254316
000030 41 d2 06 3a a8 7a 06 39 a9 22 e6 38 29 75 ef 39
       0.00051430246 0.00012824929 0.000109737106 0.00045672923

exp_avg f4 [16, 16, 1, 1]
000000 ec 80 8e ba 89 7f 8f b9 dd d7 46 3a e6 a0 6a ba
       -0.0010872162 -0.00027370107 0.0007585267 -0.00089503673
000010 1b db 81 ba b7 89 88 b6 dc 1e 06 3a 9f e3 9a ba
       -0.0009907217 -4.069148e-06 0.0005116293 -0.0011817104
000020 63 b8 90 ba 23 c5 b6 ba 93 b9 81 ba 99 2c 8a b9
       -0.001104128 -0.0013944249 -0.0009897224 -0.0002635464
000030 23 85 c9 b9 5c e7 44 3a 39 b7 a3 ba b1 7e 3c ba
       -0.00038436902 0.0007511282 -0.0012490518 -0.00071905094
000040 11 a5 03 b9 0a d9 20 38 27 02 ca b8 8e c0 7c 38
       -0.00012554626 3.8349106e-05 -9.6325115e-05 6.0260812e-05
000050 35 3e b0 39 0c 0f a1 b9 df c7 c8 b8 35 39 3e 39
       0.00033615684 -0.00030719524 -9.573972e-05 0.00018141123
000060 4f 91 c6 ba 76 a4 8d b9 10 6f 81 ba bc a0 2c ba
       -0.0015149507 -0.0002701615 -0.0009875018 -0.00065852306
000070 7b 5b f0 38 bf 27 3b ba ea 2e 50 ba cb 92 49 3a
       0.00011461131 -0.00071394065 -0.0007941561 0.00076894154
000080 5b 77 b1 bb 4f bb a0 3b 62 a4 03 bb f4 c9 6a bb
       -0.0054158396 0.0049051414 -0.0020086993 -0.003582594
000090 4b de ca 3b ad 47 0c bc 00 fa 8e ba e1 1a 9b 3b
       0.00619105 -0.008562011 -0.0010908246 0.004733429
0000a0 cf e5 1d b9 f4 6e 24 3b 81 8b 0d 3b 17 af a7 ba
       -0.00015058297 0.0025090547 0.0021598043 -0.001279327
0000b0 1e 29 04 bb 1e 3b 96 3b 69 e1 4e 3b a3 8f b9 3b
       -0.002016611 0.004584684 0.003156746 0.005662875
0000c0 c0 78 88 39 fe f8 a4 39 f9 74 ca b9 9f af 45 39
       0.00026029907 0.0003146603 -0.00038615594 0.00018852808
0000d0 1c bd 89 3a 9f 3c 98 36 f0 70 a2 b9 c9 8a b6 3a
       0.001050863 4.53701e-06 -0.00030983193 0.0013926859
0000e0 e3 8e 43 39 96 56 8c 3a 71 01 79 b9 20 83 b7 b9
       0.00018649879 0.0010706957 -0.00023747027 -0.00035002176
0000f0 a3 6d e8 38 18 10 e7 b9 a3 67 f8 39 d0 8d 0d 3a
       0.000110830435 -0.00044071744 0.00047379461 0.0005399855
000100 71 75 70 38 34 23 81 b9 21 d7 f1 39 b5 1d 02 ba
       5.7329835e-05 -0.00024631026 0.00046127386 -0.0004963533
000110 fb ba 17 ba fa c2 1b b9 4b 92 df 39 6f 03 12 ba
       -0.0005788055 -0.00014854586 0.0004264287 -0.00055699697
000120 9e f3 ed b9 b9 c9 e6 b9 ee bb da b8 79 fc 09 39
       -0.00045385672 -0.00044019314 -0.00010430055 0.00013159392
000130 84 4a e9 39 b7 70 ce 39 ee 09 3f b9 06 c3 64 ba
       0.00044496742 0.0003937536 -0.00018218879 -0.00087265705
000140 99 7e 8a ba d9 98 4a 39 51 6f 39 ba 82 56 84 ba
       -0.0010566293 0.00019321161 -0.00070737774 -0.0010096582
000150 b3 31 b8 39 d4 a4 d9 ba 7c 28 a1 b9 51 bf 38 39
       0.00035132244 -0.0016604909 -0.00030738476 0.00017618878
000160 d1 3e bf b9 cb 58 ee b9 c2 37 c9 39 26 39 ac b9
       -0.0003647716 -0.00045461053 0.0003837925 -0.00032848975
000170 bb 8b 82 b9 a6 46 08 3a 93 cc 96 b9 1c 99 77 b8
       -0.0002489964 0.0005198516 -0.0002876265 -5.9031983e-05
000180 b9 d2 e5 3a c3 78 65 ba fa 0e 4a 39 52 06 8c b9
       0.0017534114 -0.00087536516 0.000192698 -0.0002670759
000190 2d 98 e1 ba 11 f5 eb b9 6f d3 03 ba 5b b7 8e ba
       -0.001721149 -0.00045005282 -0.00050287595 -0.0010888384
0001a0 55 42 c3 39 1d 96 79 b8 05 52 7c 39 3b 65 0c 3a
       0.0003724272 -5.950603e-05 0.00024063147 0.00053556607
0001b0 bb 4b 37 b9 87 24 76 39 d8 44 47 b5 d2 a9 cc ba
       -0.00017480452 0.00023473996 -7.423346e-07 -0.0015614575
0001c0 ad 19 b3 b8 6a c8 1b 39 44 c6 92 3a b1 09 9e 39
       -8.5401676e-05 0.00014856612 0.0011198004 0.0003014333
0001d0 fa 9c b6 39 c6 3d ef 3a de 39 06 3a a3 f4 c6 38
       0.00034830702 0.0018252663 0.0005120317 9.486943e-05
0001e0 25 71 01 bb 1d 4a c8 b9 da 2c 8e ba 8f d1 85 ba
       -0.0019751277 -0.0003820219 -0.0010847107 -0.0010209548
0001f0 25 17 09 3a 83 f4 68 ba cb c7 a7 ba 6b f5 a8 39
       0.0005229584 -0.0008886533 -0.0012800632 0.00032226308
000200 16 f0 34 3b a8 e0 c7 3a c5 6a c4 39 29 1e 57 ba
       0.0027608923 0.0015249448 0.00037463583 -0.00082060933
000210 76 dd 9f 3a d9 c0 4c 3b 3d ea bc 39 ff 1e 62 3a
       0.0012196738 0.0031242876 0.00036032675 0.00086258346
000220 b6 0b d9 3b 4e 23 37 3b 2f e0 f3 3b e8 18 2b 3a
       0.0066237105 0.0027944627 0.0074424963 0.00065268436
000230 05 65 ba 39 a8 15 c6 3b de 98 ba 3b c8 00 a9 ba
       0.0003555195 0.006045062 0.0056944927 -0.001289391
000240 0b aa bd ba 8c 3a 45 3a 49 48 b4 39 08 a7 e9 b9
       -0.0014470232 0.0007523678 0.00034386132 -0.0004456567
000250 5e 7f 3d 3a 62 b7 ce 3a fc bd ed b8 37 07 49 3a
       0.0007228757 0.0015771205 -0.00011336428 0.00076686166
000260 e0 ef 72 b9 82 01 a1 39 a8 91 63 b9 e2 28 1a ba
       -0.00023168279 0.00030709436 -0.00021702668 -0.0005880726
000270 fa b1 22 39 9c e3 ff 38 be cb 88 38 a4 09 60 3a
       0.00015515825 0.00012201743 6.522935e-05 0.00085463584
000280 f8 8a 14 ba 3c b8 f3 ba 8f 7b 53 b9 b5 e9 aa 3a
       -0.000566646 -0.0018594335 -0.00020168557 0.0013039621
000290 22 f6 48 ba 39 bf b0 ba e1 e0 20 bb 56 e6 67 3a
       -0.0007666071 -0.0013484723 -0.00245481 0.00088462734
0002a0 d5 0b 79 bb 8a 76 ca ba 0b c9 d8 bb 0f 89 64 39
       -0.0038001437 -0.0015446704 -0.006615763 0.00021794833
0002b0 e7 ed 9b b8 e7 c4 be bb 1f 84 77 bb 00 23 4b 3a
       -7.435289e-05 -0.0058218124 -0.003776796 0.0007749051
0002c0 19 e1 0b 3b c5 06 6c 3a a1 40 15 bb dd b7 5a 39
       0.0021343885 0.0009003694 -0.0022774118 0.00020858595
0002d0 1e 79 21 3b 7f 15 a8 3a dd 2f cf ba 2e b7 05 3b
       0.0024638842 0.0012823789 -0.0015807111 0.0020403373
0002e0 e3 6f db 3b af ce 62 3b 25 a0 e6 3b 72 33 4c 39
       0.0066966875 0.0034608056 0.0070381337 0.00019474121
0002f0 01 4c 72 ba d4 2d 94 3b 70 91 af 3b e1 b1 2d 38
       -0.0009242893 0.0045220647 0.0053579137 4.1412077e-05
000300 5f 3e 9e 38 32 48 7d ba 39 c3 05 b8 45 54 2d 3a
       7.5456446e-05 -0.0009661942 -3.1891486e-05 0.00066119834
000310 3d 7a 29 ba cd 7d 2d 39 95 df 9d 39 d3 ce 06 ba
       -0.00064650533 0.0001654543 0.00030111955 -0.00051425135
000320 e5 ed ce ba c8 e9 a7 38 e4 43 55 ba 71 e9 fd b9
       -0.0015787451 8.006726e-05 -0.00081354217 -0.00048429848
000330 1d 0f 7a b8 c5 b7 16 bb 48 67 ba ba 5c 19 87 b9
       -5.961872e-05 -0.0022997719 -0.0014221454 -0.000257681
000340 b0 cb 1e 3b 9f 23 48 ba 66 26 91 3a 5f ad a3 3a
       0.0024230294 -0.00076347025 0.0011074066 0.0012487582
000350 ea 04 ac ba 81 5a 9c 3b d5 fc 97 39 5c ed 56 ba
       -0.0013124023 0.004771531 0.0002898934 -0.00081988215
000360 78 78 a6 3a e6 8e 14 b9 6c 6b 00 39 c0 30 26 b9
       0.0012700697 -0.00014167614 0.00012247049 -0.00015849154
000370 4a 1f 58 3a d5 3e 2f 3a 6d bf 01 3a da 35 09 bb
       0.00082444085 0.0006685083 0.0004949484 -0.002093664
000380 33 74 8b bb cc 03 5c 3b 64 0e 70 ba 2f 71 d3 ba
       -0.0042557954 0.00335716 -0.0009157418 -0.0016131754
000390 98 21 40 3b 5f c0 ae bb 06 ab 01 38 fc 2c a2 3a
       0.0029316898 -0.005332991 3.0915275e-05 0.0012373026
0003a0 b1 10 df ba 47 61 41 3a 94 a4 8b 38 87 e5 8d ba
       -0.0017018524 0.0007376861 6.6586916e-05 -0.0010825851
0003b0 d0 1a 5c ba 42 ac 44 3a 4b 5c 85 39 3b 9f 8f 3b
       -0.00083963294 0.0007502475 0.000254365 0.0043829954
0003c0 e5 4e 42 3a 8d 37 b1 ba bb 84 33 b9 92 9f 4d 3a
       0.0007412269 -0.0013520584 -0.00017120216 0.0007843907
0003d0 68 db 7f ba 7c 65 b8 b9 69 5e 19 b9 f5 40 31 ba
       -0.0009760172 -0.00035170827 -0.00014626388 -0.00067616935
0003e0 7f 82 21 bb 92 27 ef ba 1f 4a 57 bb 42 29 02 39
       -0.0024644432 -0.0018246046 -0.0032850576 0.00012413136
0003f0 d3 bc 29 b9 43 b7 4a bb 8e 4e 32 bb b9 96 0e ba
       -0.00016187438 -0.0030931986 -0.0027207467 -0.00054393295
