checkpoints/new.pth (torch, 298277 bytes, 257 tensors)

weight f4 [64, 192]
00000000: 0000 803f 0000 0000 0000 0000 0000 0000
00000010: 0000 0000 0000 0000 0000 0000 0000 0000
00000020: 0000 0000 0000 0000 0000 0000 0000 0000
00000030: 0000 0000 0000 0000 0000 0000 0000 0000
00000040: 0000 0000 0000 0000 0000 0000 0000 0000
00000050: 0000 0000 0000 0000 0000 0000 0000 0000
00000060: 0000 0000 0000 0000 0000 0000 0000 0000
00000070: 0000 0000 0000 0000 0000 0000 0000 0000
00000080: 0000 0000 0000 0000 0000 0000 0000 0000
00000090: 0000 0000 0000 0000 0000 0000 0000 0000
000000a0: 0000 0000 0000 0000 0000 0000 0000 0000
000000b0: 0000 0000 0000 0000 0000 0000 0000 0000
000000c0: 0000 0000 0000 0000 0000 0000 0000 0000
000000d0: 0000 0000 0000 0000 0000 0000 0000 0000
000000e0: 0000 0000 0000 0000 0000 0000 0000 0000
000000f0: 0000 0000 0000 0000 0000 0000 0000 0000
00000100: 0000 0000 0000 0000 0000 0000 0000 0000
00000110: 0000 0000 0000 0000 0000 0000 0000 0000
00000120: 0000 0000 0000 0000 0000 0000 0000 0000
00000130: 0000 0000 0000 0000 0000 0000 0000 0000
00000140: 0000 0000 0000 0000 0000 0000 0000 0000
00000150: 0000 0000 0000 0000 0000 0000 0000 0000
00000160: 0000 0000 0000 0000 0000 0000 0000 0000
00000170: 0000 0000 0000 0000 0000 0000 0000 0000
00000180: 0000 0000 0000 0000 0000 0000 0000 0000
00000190: 0000 0000 0000 0000 0000 0000 0000 0000
000001a0: 0000 0000 0000 0000 0000 0000 0000 0000
000001b0: 0000 0000 0000 0000 0000 0000 0000 0000
000001c0: 0000 0000 0000 0000 0000 0000 0000 0000
000001d0: 0000 0000 0000 0000 0000 0000 0000 0000
000001e0: 0000 0000 0000 0000 0000 0000 0000 0000
000001f0: 0000 0000 0000 0000 0000 0000 0000 0000
00000200: 0000 0000 0000 0000 0000 0000 0000 0000
00000210: 0000 0000 0000 0000 0000 0000 0000 0000
00000220: 0000 0000 0000 0000 0000 0000 0000 0000
00000230: 0000 0000 0000 0000 0000 0000 0000 0000
00000240: 0000 0000 0000 0000 0000 0000 0000 0000
00000250: 0000 0000 0000 0000 0000 0000 0000 0000
00000260: 0000 0000 0000 0000 0000 0000 0000 0000
00000270: 0000 0000 0000 0000 0000 0000 0000 0000
00000280: 0000 0000 0000 0000 0000 0000 0000 0000
00000290: 0000 0000 0000 0000 0000 0000 0000 0000
000002a0: 0000 0000 0000 0000 0000 0000 0000 0000
000002b0: 0000 0000 0000 0000 0000 0000 0000 0000
000002c0: 0000 0000 0000 0000 0000 0000 0000 0000
000002d0: 0000 0000 0000 0000 0000 0000 0000 0000
000002e0: 0000 0000 0000 0000 0000 0000 0000 0000
000002f0: 0000 0000 0000 0000 0000 0000 0000 0000
00000300: ccbc 8c2b 0000 803f 0000 003f 0000 0000
00000310: 0000 0000 0000 0000 0000 0000 0000 0000
00000320: 0000 0000 0000 0000 0000 0000 0000 0000
00000330: 0000 0000 0000 0000 0000 0000 0000 0000
00000340: 0000 0000 0000 0000 0000 0000 0000 0000
00000350: 0000 0000 0000 0000 0000 0000 0000 0000
00000360: 0000 0000 0000 0000 0000 0000 0000 0000
00000370: 0000 0000 0000 0000 0000 0000 0000 0000
00000380: 0000 0000 0000 0000 0000 0000 0000 0000
00000390: 0000 0000 0000 0000 0000 0000 0000 0000
000003a0: 0000 0000 0000 0000 0000 0000 0000 0000
000003b0: 0000 0000 0000 0000 0000 0000 0000 0000
000003c0: 0000 0000 0000 0000 0000 0000 0000 0000
000003d0: 0000 0000 0000 0000 0000 0000 0000 0000
000003e0: 0000 0000 0000 0000 0000 0000 0000 0000
000003f0: 0000 0000 0000 0000 0000 0000 0000 0000
1.0 0.0 0.0 0.0 0.0 0.0 0.0 0.0
0.0 0.0 0.0 0.0 0.0 0.0 0.0 0.0
0.0 0.0 0.0 0.0 0.0 0.0 0.0 0.0
0.0 0.0 0.0 0.0 0.0 0.0 0.0 0.0
0.0 0.0 0.0 0.0 0.0 0.0 0.0 0.0
0.0 0.0 0.0 0.0 0.0 0.0 0.0 0.0
0.0 0.0 0.0 0.0 0.0 0.0 0.0 0.0
0.0 0.0 0.0 0.0 0.0 0.0 0.0 0.0
0.0 0.0 0.0 0.0 0.0 0.0 0.0 0.0
0.0 0.0 0.0 0.0 0.0 0.0 0.0 0.0
0.0 0.0 0.0 0.0 0.0 0.0 0.0 0.0
0.0 0.0 0.0 0.0 0.0 0.0 0.0 0.0
0.0 0.0 0.0 0.0 0.0 0.0 0.0 0.0
0.0 0.0 0.0 0.0 0.0 0.0 0.0 0.0
0.0 0.0 0.0 0.0 0.0 0.0 0.0 0.0
0.0 0.0 0.0 0.0 0.0 0.0 0.0 0.0
0.0 0.0 0.0 0.0 0.0 0.0 0.0 0.0
0.0 0.0 0.0 0.0 0.0 0.0 0.0 0.0
0.0 0.0 0.0 0.0 0.0 0.0 0.0 0.0
0.0 0.0 0.0 0.0 0.0 0.0 0.0 0.0
0.0 0.0 0.0 0.0 0.0 0.0 0.0 0.0
0.0 0.0 0.0 0.0 0.0 0.0 0.0 0.0
0.0 0.0 0.0 0.0 0.0 0.0 0.0 0.0
0.0 0.0 0.0 0.0 0.0 0.0 0.0 0.0
1e-12 1.0 0.5 0.0 0.0 0.0 0.0 0.0
0.0 0.0 0.0 0.0 0.0 0.0 0.0 0.0
0.0 0.0 0.0 0.0 0.0 0.0 0.0 0.0
0.0 0.0 0.0 0.0 0.0 0.0 0.0 0.0
0.0 0.0 0.0 0.0 0.0 0.0 0.0 0.0
0.0 0.0 0.0 0.0 0.0 0.0 0.0 0.0
0.0 0.0 0.0 0.0 0.0 0.0 0.0 0.0
0.0 0.0 0.0 0.0 0.0 0.0 0.0 0.0

weight f4 [16, 9, 1, 5]
00000000: c4d5 af3d 447b a4bd 7c1e f0bc 7822 e53c
00000010: e0a8 9d3b e117 eebd 407c fa3c 06da c43d
00000020: 3e85 44bd 0c5a cfbd 0529 033e 8a04 aebd
00000030: 88f2 3cbd 38ce 05be e05c 86bc 02d3 b23d
00000040: f096 523c 748d 74bd 58a5 aa3c f831 e7bc
00000050: e340 113e d005 0d3c d0c0 333c 3d48 85bd
00000060: 1ddb f7bd 4070 aabc 54d7 68bd c8f7 0b3d
00000070: 70a4 583d 97cf a6bd 0488 523d f92a 18be
00000080: 58ac 153d 309b 8bbc a606 96bd c24d d8bd
00000090: c21f 913d a0b3 f33b c862 a73c e07d dcbd
000000a0: f6b1 da3d 2cfb 9d3d f82a 9ebc 20db 3b3c
000000b0: 82e7 8b3d f086 73bd b099 953c 3e84 a53d
000000c0: e087 b9bb e777 0bbe ee5c febd 39a1 0c3e
000000d0: e415 28bd f88a ecbd 0a13 b3bd 8026 d83c
000000e0: 6efe ed3d b8d4 34bd 0ae2 dabd c06e 463b
000000f0: cade b1bd 205b 9d3d 02f4 cd3d 6e04 d13d
00000100: 50c0 1dbc 7341 083e 541a e4bd 1a52 47bd
00000110: 08c0 bfbc 9ecf f93d 1036 cebd 389b b53c
00000120: f25c 15be 0e5f c6bd d80f 8a3d a600 d9bd
00000130: 34e9 e8bc 8057 02bc 7a69 cabd 7237 edbd
00000140: a111 173e ac74 903d 0401 7d3d d065 9ebc
00000150: c672 abbd e317 0abe c58b aabd 42fc ae3d
00000160: 7847 8e3d 5478 8f3d 7630 d3bd 568a edbd
00000170: 4800 313d d4a1 d5bc c4e6 b83d a679 abbd
00000180: 0789 123e d229 69bd 607c 7c3c 20af 0cbc
00000190: e2e8 0bbe 1210 c0bd 80ff abbc aafb a03d
000001a0: c089 e7bb 144d b5bd c81a a93d 90af 68bc
000001b0: f13f 0e3e 2287 65bd 7c1c cc3d 4596 b0bd
000001c0: dce3 f3bc da7e a73d fa9f 12be 4097 f73b
000001d0: f747 e4bd eab2 3abd 1b87 0fbe 0881 353d
000001e0: 9168 00be 4074 a6bb 14ec 53bd ea41 823d
000001f0: 8f0c 013e 11db 103e b7c1 0c3e f317 a5bd
00000200: be0c f0bd 0649 fdbd 52d7 e13d 62c8 ae3d
00000210: fa48 49bd 0088 6d3b 7490 743d 7811 a1bc
00000220: d12d 0b3e 7563 a2bd a637 e3bd 13cc 103e
00000230: 3114 183e 129e f13d 3f94 0a3e 7a20 00be
00000240: 7a45 2bbd 7003 df3c d058 c0bc d26c d73d
00000250: 8e66 81bd e80e cc3c 0000 f538 2cb3 a93d
00000260: 6a9b e93d 6016 30bc 322a ec3d 6615 edbd
00000270: 00df 3b3c f485 06be e424 70bd 5bd9 0a3e
00000280: e4b6 533d 7740 adbd 628b ffbd 70d7 50bc
00000290: e1a9 103e 22f8 09be 8dd2 033e acff be3d
000002a0: 235e fdbd 9b0f 003e bc4b 78bd 0c4d ad3d
000002b0: ec0c 323d 9452 2a3d fe64 97bd 4765 163e
000002c0: b6c0 e03d 70f9 dcbd 8c8d 11be 0029 fbbb
000002d0: 46e4 17be a03a 11bc fdaf e4bd 60f5 a4bb
000002e0: ca5e 0cbe 666b d13d 0065 653b 68dd c6bd
000002f0: e6be 25bd e025 9dbb 14ac 7c3d c0f0 ccbb
00000300: ebd0 f1bd c289 e7bd e09d dcbb 20b0 bbbb
00000310: 82bb 1bbd 56e7 853d 728d ea3d b071 ec3c
00000320: 3080 67bd 4238 3dbd 0ea9 873d d06e df3c
00000330: 20ae 5f3d d6a4 ac3d 6885 fc3c 38d0 ffbd
00000340: fe0d edbd bad5 a63d 4f50 103e ce4f ab3d
00000350: 86e8 e53d b0b0 183c 28a3 99bc bddd a9bd
00000360: 7005 5a3c ab59 18be d0e9 ab3d c2b9 9f3d
00000370: b43d 49bd 5415 623d 1ea7 49bd 9099 cb3c
00000380: cc67 51bd 282e 1abd 2a4e f6bd 009a a739
00000390: 5aa4 f83d d445 01bd 300a 343d 74bd 783d
000003a0: 565f 73bd b486 4cbd 32f3 e1bd d43e 193d
000003b0: 5ec8 7abd 74dc 95bd 8044 ccbb 5b0f d6bd
000003c0: 8076 36bc e0ae 083d 7eaa fa3d 4a45 b73d
000003d0: ea78 ba3d b000 7c3d d1db 0b3e 4a25 95bd
000003e0: 32a1 03be c4c1 e4bc a2c1 b73d bc16 c23d
000003f0: b816 a83d 4358 aebd 9612 f23d b0d1 6a3d
0.085856944 -0.080313236 -0.029311411 0.027970538 0.0048113912 -0.11625648 0.030576825 0.09611897
-0.047978632 -0.10124597 0.12808616 -0.084969595 -0.046129733 -0.13066947 -0.016401708 0.08731653
0.012853369 -0.059705213 0.020830795 -0.02822207 0.14184909 0.008607343 0.010971263 -0.06507919
-0.121023394 -0.020805478 -0.056845978 0.03417185 0.052891195 -0.08145063 0.051399246 -0.14860143
0.036541313 -0.017041773 -0.07325487 -0.10561706 0.070861354 0.0074371845 0.020432845 -0.10766196
0.106784746 0.07713923 -0.019307598 0.011465818 0.06831266 -0.05945486 0.01826176 0.08081864
-0.0056619495 -0.13619958 -0.12420069 0.13733377 -0.0410365 -0.11549944 -0.08743866 0.026385546
0.11620794 -0.044148177 -0.10687645 0.0030278414 -0.08685072 0.07683396 0.100563064 0.10205923
-0.00962837 0.13306217 -0.11137834 -0.048662283 -0.023406997 0.12197803 -0.10068905 0.02216874
-0.14586237 -0.09686099 0.06741303 -0.10595827 -0.028431512 -0.007955432 -0.09883399 -0.11582841
0.14752819 0.070535034 0.061768547 -0.019335657 -0.08371501 -0.13485675 -0.0832744 0.08544208
0.06947225 0.07005373 -0.103119776 -0.11598651 0.04321316 -0.026078142 0.0902839 -0.08372812
0.14310084 -0.05692465 0.015410513 -0.008586675 -0.13663056 -0.09378065 -0.020995855 0.07860501
-0.0070659816 -0.08852592 0.08257061 -0.014202014 0.13891579 -0.056037076 0.099663705 -0.08622412
-0.029771738 0.08178492 -0.14318839 0.007555872 -0.11146539 -0.045580782 -0.14016382 0.044312507
-0.12539889 -0.005079776 -0.051738814 0.06360228 0.12602447 0.14146067 0.13745771 -0.080612086
-0.117211804 -0.12367444 0.11027397 0.08534314 -0.04914186 0.0036244392 0.059708074 -0.01966165
0.13591696 -0.07929126 -0.110945985 0.14140348 0.14851452 0.11797728 0.13533114 -0.12512389
-0.041814305 0.027223319 -0.02347985 0.10518803 -0.06318389 0.024909452 0.000116825104 0.082861274
0.11406596 -0.010747522 0.115314856 -0.11576347 0.011466742 -0.13137037 -0.05862893 0.13559477
0.05168809 -0.08459561 -0.12477757 -0.012746677 0.14127304 -0.13473561 0.12873287 0.09326109
-0.12371471 0.12505953 -0.0606191 0.08461961 0.043469355 0.04158266 -0.073923096 0.14687072
0.10974257 -0.10789764 -0.14214152 -0.0076647997 -0.14833173 -0.008864075 -0.111663796 -0.005034134
-0.13708034 0.10225563 0.0035002828 -0.09710199 -0.040465258 -0.004795775 0.061687544 -0.0062542856
-0.11807426 -0.11305572 -0.0067326874 -0.005727783 -0.03802062 0.065382645 0.1145276 0.028862804
-0.056518734 -0.04619623 0.066240415 0.02727452 0.054609418 0.084298775 0.030825332 -0.124908864
-0.115749344 0.08146234 0.14093135 0.08364831 0.11225991 0.009319469 -0.018754557 -0.08294246
0.01330696 -0.14877956 0.083942056 0.07799102 -0.04913111 0.05519612 -0.04923164 0.024853498
-0.05112438 -0.037641674 -0.12026627 0.0003196746 0.121407226 -0.031560734 0.043955028 0.06072755
-0.05941709 -0.04993315 -0.11032714 0.037413433 -0.06122624 -0.07317439 -0.006233752 -0.104521476
-0.011136651 0.0333699 0.1223955 0.08948763 0.09105094 0.061524093 0.13658072 -0.07282503
-0.1285446 -0.027924426 0.089724794 0.094769925 0.08207458 -0.08512928 0.11819951 0.05732888

bias f4 [16]
00000000: ba68 d03d 603e 5dbd 6200 0bbe 8c55 92bd
00000010: 40b7 f33b 0a23 f7bd 7a51 50bd 3c91 713d
00000020: 48e5 c23c e058 363c 302e 6abc ea18 c33d
00000030: be9b e13d fed4 f2bd dee7 d53d 22d2 f73d
0.10176225 -0.054014564 -0.13574365 -0.07145223 0.0074376166 -0.1206723 -0.050858952 0.058976397
0.02379097 0.011129588 -0.0142932385 0.09526236 0.110160336 -0.11857031 0.10444616 0.121006265

weight f4 [16]
00000000: 0000 803f 0000 803f 0000 803f 0000 803f
00000010: 0000 803f 0000 803f 0000 803f 0000 803f
00000020: 0000 803f 0000 803f 0000 803f 0000 803f
00000030: 0000 803f 0000 803f 0000 803f 0000 803f
1.0 1.0 1.0 1.0 1.0 1.0 1.0 1.0
1.0 1.0 1.0 1.0 1.0 1.0 1.0 1.0

bias f4 [16]
00000000: 0000 0000 0000 0000 0000 0000 0000 0000
00000010: 0000 0000 0000 0000 0000 0000 0000 0000
00000020: 0000 0000 0000 0000 0000 0000 0000 0000
00000030: 0000 0000 0000 0000 0000 0000 0000 0000
0.0 0.0 0.0 0.0 0.0 0.0 0.0 0.0
0.0 0.0 0.0 0.0 0.0 0.0 0.0 0.0

running_mean f4 [16]
00000000: 0000 0000 0000 0000 0000 0000 0000 0000
00000010: 0000 0000 0000 0000 0000 0000 0000 0000
00000020: 0000 0000 0000 0000 0000 0000 0000 0000
00000030: 0000 0000 0000 0000 0000 0000 0000 0000
0.0 0.0 0.0 0.0 0.0 0.0 0.0 0.0
0.0 0.0 0.0 0.0 0.0 0.0 0.0 0.0

running_var f4 [16]
00000000: 0000 803f 0000 803f 0000 803f 0000 803f
00000010: 0000 803f 0000 803f 0000 803f 0000 803f
00000020: 0000 803f 0000 803f 0000 803f 0000 803f
00000030: 0000 803f 0000 803f 0000 803f 0000 803f
1.0 1.0 1.0 1.0 1.0 1.0 1.0 1.0
1.0 1.0 1.0 1.0 1.0 1.0 1.0 1.0

weight f4 [16, 8, 1, 5]
00000000: 602f 273c 3601 1dbe 6039 f9bc 5019 1e3d
00000010: be9c cd3d ee22 b43d 905d 04bc 30ab 493c
00000020: 6461 423d 2884 06be 9e41 94bd 32bc 0fbe
00000030: 6069 69bc 6aeb d93d be37 a2bd b0a2 06bd
00000040: 5a3a 35bd 1c9f 5d3d c877 cbbc 8ba0 aabd
00000050: 48c7 c03c dae4 9bbd d9c5 0bbe 40d7 7b3d
00000060: 2121 123e 1475 753d 86dd a03d a0e2 aa3b
00000070: 5c9e 5d3d be3c a93d 60c5 be3c 2dbd 0abe
00000080: a24e b3bd f111 e7bd 3e90 98bd 402f ae3b
00000090: 593b 0cbe d606 c03d 3586 c9bd c004 12be
000000a0: b943 abbd dc54 e3bd 01e4 14be 8137 b5bd
000000b0: d8ee 88bc 2967 00be 5784 1e3e c313 193e
000000c0: 154a b5bd 4a02 17bd 7ab3 e33d d0e0 57bc
000000d0: 569e 2ebd 6cc1 1e3d b420 00bd c81f 5d3d
000000e0: 401f 313d 7063 413c 08e3 04bd aa98 d93d
000000f0: 587f dbbd c0f4 453d 5055 c4bd 8f46 1b3e
00000100: 4a63 b0bd d3dc a7bd 388a ae3c d67b 63bd
00000110: 7c55 8dbd 72f5 c03d e270 19bd b5d4 133e
00000120: ba17 d03d ce7e 5bbd 30d8 d83c f488 153d
00000130: 187c 573d effb 99bd a0d0 68bc db91 0f3e
00000140: 8b44 1b3e 8079 c4bd 488a d9bd 787c 86bc
00000150: 0080 83b9 a90e 18be 701f d5bd e75e 113e
00000160: 7679 4cbd 3077 3d3c 93d0 abbd 2baf 0b3e
00000170: b80f dabd 5e7c de3d 60de 65bc 04a1 983d
00000180: 8879 febc c094 1fbd 6ace ccbd eb01 1b3e
00000190: d0c0 13be 7766 1f3e 9029 b03c 1430 73bd
000001a0: c8e3 81bc 48d8 21bd eb2d 063e b85d 953c
000001b0: a806 fabd 15b9 19be f86d 89bc 92c8 fabd
000001c0: 5aa2 ec3d 5057 dcbc 6c26 623d 7ae9 5bbd
000001d0: 3a3b 1ebe a02c 48bc 98b0 423d 2cc8 e1bd
000001e0: 80fe cb3a 6f56 063e 00a6 ddbd 7891 923d
000001f0: 3c3e 613d 40b8 be3b b537 133e 4b6a 023e
00000200: 5a8f 863d 0ba1 f7bd 1e61 c4bd fcb0 493d
00000210: 6c7a efbd 80d3 adbc 726c 2abd a454 963d
00000220: f475 2e3d d12d 153e 6858 a13c ce2d f43d
00000230: 3798 91bd e59a 083e 841a abbd 605d b0bc
00000240: 567e a63d ca1e d53d 8d24 183e b0e2 e3bc
00000250: 70a4 cbbc a7b0 00be f058 923d 4d69 0b3e
00000260: 00b1 053b 4233 f33d b0de e3bc 4c5a 743d
00000270: 8a21 fdbd e403 a73d 31e1 09be 3261 aabd
00000280: 209a b1bb d56d 15be 9a50 bd3d 3498 5d3d
00000290: dc58 38bd 0c01 a23d 3028 62bd b4dc 0dbe
000002a0: cb95 003e 1241 e93d 8c0a 3dbd 8f5e 173e
000002b0: 4c52 07be 25f4 1dbe aec8 a33d 2d62 c2bd
000002c0: 3ae4 c3bd b01c 9c3d 5093 313c 801e e33c
000002d0: 93b4 e6bd af0c 10be a09c 01be 0043 60ba
000002e0: cfda 093e e5f0 18be af0b bdbd 14ff 033d
000002f0: f6dd 15bd 8c7b 713d 685c 92bd a0f5 943c
00000300: d464 cbbd 2242 a83d 6a1a 8a3d 50b1 693c
00000310: 1045 303c ee67 f63d ca3d 0fbd e0db c9bd
00000320: 4c42 87bd d6e7 41bd e5a7 9cbd 4c5e 1ebd
00000330: 0985 0bbe 705b f1bc ed06 10be be4a cf3d
00000340: 868f 12be 76e4 dd3d 9944 1a3e cefd f2bd
00000350: 780d 4d3d 3645 01be 6a53 f1bd a5d9 05be
00000360: 3f01 013e 72f9 f0bd b417 b23d e0c2 243d
00000370: c0b2 5b3c d2ce 2cbd be05 ca3d b813 223d
00000380: ba35 cebd 4501 013e d0f2 a93c a7dc 103e
00000390: a954 173e bd61 1d3e 5417 b83d 59ec 1f3e
000003a0: 07b0 0c3e 6864 42bd 0425 bc3d d21d d4bd
000003b0: 5ab8 833d 74dc 55bd e89f dabd 00a1 9b3d
000003c0: b0e6 223d e463 473d 4058 04bb fdb2 d5bd
000003d0: 8955 033e 2018 a8bd 84d9 063d ca64 5dbd
000003e0: c68f 82bd a0c5 7f3c 6487 8a3d 3638 52bd
000003f0: 7b64 163e d26c 4bbd 6058 f5bd b47e ad3d
0.010204166 -0.15332493 -0.030422866 0.03859836 0.10039662 0.08795725 -0.008078948 0.012308881
0.04745616 -0.13136351 -0.07239078 -0.14036635 -0.014246315 0.10640605 -0.07920788 -0.032869995
-0.0442451 0.054106817 -0.02483739 -0.083314024 0.023532525 -0.07612009 -0.13649692 0.061484575
0.1427045 0.059926108 0.07854752 0.005215004 0.0541061 0.08263539 0.023287475 -0.13548727
-0.087552324 -0.11282719 -0.07449387 0.005315691 -0.13694514 0.09376304 -0.09840051 -0.14259624
-0.083625264 -0.1110017 -0.14540102 -0.08848477 -0.016715452 -0.12539352 0.15480171 0.14948945
-0.08852021 -0.036867417 0.11118217 -0.013176158 -0.04263147 0.03875868 -0.031281188 0.053985387
0.043242693 0.011803493 -0.032443076 0.106248215 -0.10717648 0.048329115 -0.095865846 0.15163635
-0.08612688 -0.08196416 0.021306142 -0.05553802 -0.069010705 0.09421815 -0.03746117 0.1443661
0.101607755 -0.053587727 0.026470274 0.03650756 0.05260858 -0.07518756 -0.014209896 0.14020483
0.15162866 -0.09593487 -0.10622078 -0.016416773 -0.00025081635 -0.14849342 -0.10406387 0.14196359
-0.04992052 0.011564061 -0.08389392 0.1364104 -0.10647529 0.10863565 -0.014030069 0.07452586
-0.03106381 -0.03896022 -0.10000308 0.1513745 -0.14429021 0.15566431 0.021504194 -0.059372023
-0.015855685 -0.039512902 0.13103454 0.018233165 -0.12208301 -0.1501201 -0.01677607 -0.12245287
0.115544036 -0.026897103 0.055212423 -0.053689457 -0.1545228 -0.012217671 0.047531694 -0.11024508
0.0015563518 0.1311891 -0.108226776 0.07156652 0.054990992 0.005820304 0.1437672 0.1273586
0.06570311 -0.120912634 -0.09588836 0.04924105 -0.11693272 -0.021219015 -0.041607328 0.07340363
0.042592958 0.14568259 0.019695476 0.11922799 -0.07109111 0.13340338 -0.08354667 -0.0215289
0.081295654 0.10406263 0.14857693 -0.027818054 -0.024858683 -0.12567388 0.0714587 0.13614388
0.002039969 0.11875011 -0.027816147 0.059656426 -0.12359913 0.08155039 -0.1346481 -0.0831932
-0.0054199845 -0.14592679 0.09243889 0.05410023 -0.045006618 0.07910356 -0.055214107 -0.13853723
0.12557141 0.11389364 -0.046152636 0.14782165 -0.13214988 -0.15425165 0.07997261 -0.09491382
-0.09565015 0.07622659 0.010838345 0.027724504 -0.112649105 -0.14067338 -0.12657404 -0.00085549057
0.13462375 -0.14935644 -0.09230744 0.032225683 -0.03658863 0.058955714 -0.07146531 0.01818353
-0.09931341 0.08215739 0.06743319 0.014263466 0.010758653 0.12031542 -0.034971036 -0.09856391
-0.06604442 -0.047340237 -0.07649211 -0.038664147 -0.13624968 -0.029462546 -0.14065142 0.10121678
-0.14312562 0.10834591 0.1506523 -0.11864816 0.050061673 -0.12624058 -0.11783488 -0.13071306
0.12598132 -0.11766328 0.08695927 0.04022491 0.013409317 -0.042189427 0.098643765 0.039569587
-0.10068841 0.1259814 0.020745665 0.14146672 0.14778389 0.15369315 0.089888245 0.15617503
0.13739024 -0.047459036 0.09186748 -0.1035725 0.06431647 -0.052212194 -0.10675031 0.07599068
0.039770782 0.048679247 -0.0020194203 -0.1043453 0.12825598 -0.082077265 0.032922283 -0.054051198
-0.06375079 0.015611082 0.06764105 -0.05132314 0.14686768 -0.049664326 -0.11979747 0.08471432

bias f4 [16]
00000000: 9860 603d 81cb 1c3e b928 0f3e d8be 3c3d
00000010: 16dd d53d a12f 003e da54 efbd 375d 21be
00000020: 50e1 54bd fef0 9d3d 1664 f0bd 7554 14be
00000030: b90f 1b3e 78bb f1bd c6a0 b1bd 0eeb e73d
0.05477962 0.15312006 0.13980378 0.04608044 0.104425594 0.12518169 -0.11686106 -0.15758215
-0.051972687 0.07711981 -0.1173784 -0.14485343 0.15142716 -0.11803335 -0.08673243 0.1132413

weight f4 [16]
00000000: 0000 803f 0000 803f 0000 803f 0000 803f
00000010: 0000 803f 0000 803f 0000 803f 0000 803f
00000020: 0000 803f 0000 803f 0000 803f 0000 803f
00000030: 0000 803f 0000 803f 0000 803f 0000 803f
1.0 1.0 1.0 1.0 1.0 1.0 1.0 1.0
1.0 1.0 1.0 1.0 1.0 1.0 1.0 1.0

bias f4 [16]
00000000: 0000 0000 0000 0000 0000 0000 0000 0000
00000010: 0000 0000 0000 0000 0000 0000 0000 0000
00000020: 0000 0000 0000 0000 0000 0000 0000 0000
00000030: 0000 0000 0000 0000 0000 0000 0000 0000
0.0 0.0 0.0 0.0 0.0 0.0 0.0 0.0
0.0 0.0 0.0 0.0 0.0 0.0 0.0 0.0

running_mean f4 [16]
00000000: 0000 0000 0000 0000 0000 0000 0000 0000
00000010: 0000 0000 0000 0000 0000 0000 0000 0000
00000020: 0000 0000 0000 0000 0000 0000 0000 0000
00000030: 0000 0000 0000 0000 0000 0000 0000 0000
0.0 0.0 0.0 0.0 0.0 0.0 0.0 0.0
0.0 0.0 0.0 0.0 0.0 0.0 0.0 0.0

running_var f4 [16]
00000000: 0000 803f 0000 803f 0000 803f 0000 803f
00000010: 0000 803f 0000 803f 0000 803f 0000 803f
00000020: 0000 803f 0000 803f 0000 803f 0000 803f
00000030: 0000 803f 0000 803f 0000 803f 0000 803f
1.0 1.0 1.0 1.0 1.0 1.0 1.0 1.0
1.0 1.0 1.0 1.0 1.0 1.0 1.0 1.0

weight f4 [16, 16, 1, 1]
00000000: 683c 833d d0a6 7c3e 98bc 433d 1234 783e
00000010: 5409 d9bd 36c3 0e3e 32a3 763e fe4c 7b3e
00000020: 1481 e6bd 0a40 2dbe 2818 1f3e de69 22be
00000030: 208b c7bc 2620 58be 0c4e 1e3e 3412 76be
00000040: d2ea 06be 400a c7bb 70f9 61be 30ac babd
00000050: d84e f33d 7e4a 11be 0ec8 043e 9cc3 7bbe
00000060: 10e6 0d3d c041 88bc 7cfc e53d 04c2 5e3e
00000070: 02ae 253e a4b1 ed3d fa77 35be 3814 7dbe
00000080: b439 dabd 0eb4 35be 3845 3dbd 48ec 2bbe
00000090: a074 6b3d 50b4 0e3e 8e6c 55be e807 7a3e
000000a0: ee01 763e 8011 4a3b b21a 26be 4c27 473e
000000b0: 006a 98bb 109a c93d 2e62 2dbe 2c65 51be
000000c0: 4079 3e3e b067 d1bc 9659 6fbe 1a52 1c3e
000000d0: 7e4a 073e a661 7b3e 367b 393e a6ab 17be
000000e0: 50f8 753e 70a6 603d a2d4 293e 7e9d 5fbe
000000f0: fcb2 d03d f87a e2bd 50bf 133d 8462 4c3e
00000100: 5c98 613e b09e 43bd c241 12be def4 573e
00000110: e068 04bd 5efc 7ebe 4074 f13d 2a35 223e
00000120: 5441 3bbe 0032 24bd 80f9 b73d 809f 0a3b
00000130: f874 5a3d 28a2 983d 0070 97bd 30cd f23d
00000140: 305a 28bd f6d3 473e 5af8 1cbe fc7e 37be
00000150: 288a 44be accc 91bd ccfd 82bd d22d 5dbe
00000160: c82d 313d be52 033e 8825 1bbd 2452 15be
00000170: 2030 b33c 9a09 60be 500d 82bc 947d 873d
00000180: a0f0 02be c69d 393e c84a 10bd a233 7ebe
00000190: 9264 413e d420 46be 50be b6bc 041c cb3d
000001a0: d824 993d a8a8 20bd 4027 31bc f0e8 363d
000001b0: c497 2cbe f0e7 88bc 001e fd3c 488e 453e
000001c0: 589a 653e 9866 e7bd 105c 24be 508d 7ebd
000001d0: 422c 4d3e 209c 7fbc e059 3cbd c028 993b
000001e0: 3821 6b3e bed4 563e 6842 7e3e 1c85 db3d
000001f0: 0046 20bd 803e f13c c02c 0f3d 9c2a bb3d
00000200: 2011 e4bd 20fd aebd 9ec5 0ebe 2ac4 11be
00000210: 6403 473e 4880 01be 4843 47bd 761e 733e
00000220: c086 12bc d8d9 3bbd 587a 423d dc83 e03d
00000230: 304b 5bbd d676 4cbe 2051 903c b859 54bd
00000240: ce05 313e 60a2 de3c d2e2 2cbe 08c0 f7bd
00000250: 60e2 83bc d873 d2bd 184c 363e ca74 423e
00000260: e8b6 b6bd 04a2 3a3e fc45 fa3d de73 483e
00000270: 1edd 393e 5a28 3b3e e4cd d53d 002f 3abe
00000280: 5ce8 c2bd 1805 f6bd 1843 bfbd 605a 7bbc
00000290: b254 083e 00fe f3bb 7cd3 abbd 9089 9b3d
000002a0: 00ca 4bbd 140b a4bd 6886 653d 9c03 cb3d
000002b0: 1ee9 46be 5090 123e 52fb 03be 1af0 08be
000002c0: e0f9 15bc 0455 213e 3433 7cbe e00c 70be
000002d0: 20ea bebc 4a81 55be b4dc 203e 40c0 813c
000002e0: 8298 0cbe 88e1 ffbd d86f 63bd e05d 5dbe
000002f0: a0e9 153e 5c0b 723e 1cc8 6cbe dc38 24be
00000300: c0b5 b4bb 483e 22bd 34dd 24be 60de acbc
00000310: 9815 10be 4ee0 08be 8213 753e 10fa f0bd
00000320: 281c 60bd 80f0 c73b 9838 373e a8f6 b6bd
00000330: dcfc 653e 74a4 22be 2093 7ebd 202d bcbc
00000340: f602 38be 8c9d 14be 705f 1b3e 1609 533e
00000350: 885e eabd 3420 bd3d 1005 ec3c b4cd 1abe
00000360: b881 ad3d 1ef8 69be 9ccf e6bd 30fb 83bd
00000370: b804 14bd 0080 cc3a 388d 22bd 005a a43c
00000380: f0d2 1d3d ec11 fcbd 886d ccbd fe2e 7f3e
00000390: 40e1 173e 9821 733d 3437 7dbe 682c 47be
000003a0: 4083 403c 0cc8 763e 2041 ad3d 04ff efbd
000003b0: d077 bb3c d456 ee3d 648a 6e3e 2699 69be
000003c0: 0832 a63d 967f 733e 6036 ea3d 9839 68bd
000003d0: c8ce 59bd e0b1 fa3d 18da 623d 18b2 93bd
000003e0: a04f 15bc 8047 b8bc c0ab 363e 22a9 22be
000003f0: 5047 673d 762a 0b3e 4858 bd3d e43b a3bd
0.06408006 0.24673009 0.04778728 0.24238613 -0.10597482 0.13941655 0.24085692 0.24541089
-0.112550884 -0.1691896 0.15536559 -0.15860698 -0.024358332 -0.21106014 0.1545946 -0.24030381
-0.13175514 -0.00607422 -0.22067809 -0.091148734 0.118802726 -0.14188573 0.1296694 -0.24586338
0.034643233 -0.016632915 0.11229798 0.21753699 0.1617966 0.11606148 -0.17721549 -0.24714744
-0.10655537 -0.17744467 -0.04620859 -0.16789353 0.05748427 0.13935971 -0.20842192 0.24417078
0.24024174 0.0030833185 -0.16221121 0.19448584 -0.004651308 0.09843838 -0.16931984 -0.2044875
0.1860094 -0.025562137 -0.23374018 0.15265694 0.1321201 0.24548969 0.18113407 -0.14811572
0.24020505 0.054846227 0.16585019 -0.21837422 0.101903886 -0.11058611 0.03607112 0.19959456
0.22030777 -0.047758758 -0.14282897 0.21089503 -0.03232658 -0.24900958 0.11789751 0.15840593
-0.1828664 -0.040086746 0.08983135 0.0021152198 0.053334206 0.07452804 -0.07394409 0.11855543
-0.041101635 0.1951445 -0.15329114 -0.17919534 -0.19193327 -0.07119116 -0.06396064 -0.2159951
0.04325655 0.12824532 -0.03787759 -0.14582115 0.021873534 -0.21878663 -0.015875489 0.06615749
-0.12787104 0.18126592 -0.035227567 -0.24824384 0.18886021 -0.1934846 -0.022307545 0.09917453
0.074777305 -0.039223343 -0.010812581 0.04465574 -0.16854769 -0.016712159 0.030898094 0.19292557
0.22422159 -0.11298865 -0.16050744 -0.062146485 0.20036414 -0.015601188 -0.04598415 0.004674047
0.2296189 0.20979592 0.2483002 0.10718748 -0.039129257 0.029448748 0.034954786 0.091389865
-0.11136079 -0.085443735 -0.13942572 -0.14234987 0.19434887 -0.12646592 -0.04864815 0.23742089
-0.00894326 -0.04586205 0.047479957 0.1096265 -0.0535385 -0.19967207 0.017616808 -0.051843375
0.1728737 0.027177036 -0.168834 -0.12097174 -0.016099155 -0.10276002 0.17802465 0.18989864
-0.08921605 0.18225867 0.1222038 0.1957545 0.18150756 0.18277112 0.10439661 -0.18181992
-0.09516975 -0.1201269 -0.09338969 -0.015341371 0.13313559 -0.0074460506 -0.08389947 0.07594597
-0.04975319 -0.080099255 0.056036383 0.09912798 -0.19424865 0.14312863 -0.1288884 -0.13372841
-0.009153813 0.15755087 -0.24628907 -0.23442411 -0.023304999 -0.20850101 0.15709192 0.015838742
-0.13730052 -0.124941885 -0.055526584 -0.21617842 0.14639902 0.23637146 -0.2312321 -0.16037315
-0.0055148304 -0.039610177 -0.16100007 -0.02110213 -0.14070737 -0.13366815 0.23933223 -0.11766446
-0.054714352 0.006101668 0.17892683 -0.08933765 0.2245974 -0.15883046 -0.062152028 -0.022970736
-0.1796988 -0.14513224 0.15173125 0.20608935 -0.11443812 0.09234658 0.028811008 -0.15117532
0.084720075 -0.22848555 -0.11270067 -0.064443946 -0.036137313 0.0015602112 -0.039685458 0.020062447
0.038531244 -0.12308106 -0.09981829 0.2492027 0.1483202 0.05935821 -0.2472809 -0.19450533
0.011750042 0.2409975 0.08459687 -0.11718562 0.02288428 0.11637655 0.2329498 -0.22812328
0.081150115 0.23779139 0.114361525 -0.05669555 -0.053175718 0.12240958 0.05538377 -0.07211703
-0.009113222 -0.022495031 0.17838955 -0.15884832 0.056464493 0.13590416 0.09245354 -0.079704076

bias f4 [16]
00000000: 88c4 323e 8c4e 3b3e 4cc4 8c3d 182d 783d
00000010: d0f7 82bc e05d 4abc 1cf9 01be e01a 71be
00000020: 6c0b 8abd 6ec8 023e ba47 23be 9e20 43be
00000030: a4ce 483e 9823 473d ac86 d13d b827 083e
0.17457783 0.18291682 0.06873378 0.06058988 -0.015987307 -0.012351483 -0.12692684 -0.23545408
-0.0674046 0.1277177 -0.1594533 -0.19055411 0.19610077 0.04861793 0.10230765 0.13296402

weight f4 [16]
00000000: 0000 803f 0000 803f 0000 803f 0000 803f
00000010: 0000 803f 0000 803f 0000 803f 0000 803f
00000020: 0000 803f 0000 803f 0000 803f 0000 803f
00000030: 0000 803f 0000 803f 0000 803f 0000 803f
1.0 1.0 1.0 1.0 1.0 1.0 1.0 1.0
1.0 1.0 1.0 1.0 1.0 1.0 1.0 1.0

bias f4 [16]
00000000: 0000 0000 0000 0000 0000 0000 0000 0000
00000010: 0000 0000 0000 0000 0000 0000 0000 0000
00000020: 0000 0000 0000 0000 0000 0000 0000 0000
00000030: 0000 0000 0000 0000 0000 0000 0000 0000
0.0 0.0 0.0 0.0 0.0 0.0 0.0 0.0
0.0 0.0 0.0 0.0 0.0 0.0 0.0 0.0

running_mean f4 [16]
00000000: 0000 0000 0000 0000 0000 0000 0000 0000
00000010: 0000 0000 0000 0000 0000 0000 0000 0000
00000020: 0000 0000 0000 0000 0000 0000 0000 0000
00000030: 0000 0000 0000 0000 0000 0000 0000 0000
0.0 0.0 0.0 0.0 0.0 0.0 0.0 0.0
0.0 0.0 0.0 0.0 0.0 0.0 0.0 0.0

running_var f4 [16]
00000000: 0000 803f 0000 803f 0000 803f 0000 803f
00000010: 0000 803f 0000 803f 0000 803f 0000 803f
00000020: 0000 803f 0000 803f 0000 803f 0000 803f
00000030: 0000 803f 0000 803f 0000 803f 0000 803f
1.0 1.0 1.0 1.0 1.0 1.0 1.0 1.0
1.0 1.0 1.0 1.0 1.0 1.0 1.0 1.0

weight f4 [16, 1, 3, 3]
00000000: 9b19 74be 7ca5 cfbd 3de3 9c3e 7b75 33be
00000010: c0fe 95bd d4b5 ff3d 56a9 22be 7345 8c3e
00000020: 5583 903e 1c30 f13d d37c a73e 9a40 783e
00000030: 9032 8d3d 5e69 31be f42e f03d 66e1 1b3e
00000040: f2ce a1be 5c74 edbd 46cb 24be e011 f9bd
00000050: f6a6 40be 2b3a 6abe 21c7 a63e 205d 983d
00000060: 8064 eabc c0af 083d 3a42 553e 2db4 973e
00000070: a603 ccbd cf32 8fbe 2ce7 8e3d 4013 05bd
00000080: 58d7 163d 7aef 7c3e f09b f83c 4fdf 84be
00000090: ebd4 97be 6bde 9a3e 8a9b 5d3e 8c39 8b3d
000000a0: f09b fabc 8e1e 163e 00c0 eebc b105 813e
000000b0: 5214 1a3e 5c16 a53d 35f3 8d3e 8a8e 98be
000000c0: df31 8dbe c4d0 c43d 1ce7 a4be ce3d 68be
000000d0: 2633 493e ccf6 8cbe 6a1f 7a3e 406c f9bb
000000e0: f355 9bbe ad2f 953e 7bf0 78be 6b0f 78be
000000f0: 7726 803e 6a5e 553e 4694 47be 4c2d f2bd
00000100: 3c61 a9bd 60d0 28bc 90e6 893d 5620 97be
00000110: a324 77be 9c34 aebd f80e 9fbe 70b4 0ebe
00000120: a0a7 183d befb 60be 90d8 b73d e088 a5be
00000130: d2c6 95be c48a 8ebd 03e8 58be 9acb 463e
00000140: f732 853e 1b9b 84be af35 833e be27 63be
00000150: 3ff2 8ebe a68c 5f3e ac1b 8dbe b60a 3a3e
00000160: 2f8e 9dbe d061 c7bd e043 16bc 864b c3bd
00000170: 1f7b 85be ac68 8abe f8f1 203d c965 973e
00000180: 3494 a5be 9652 59be 74bf 8abd 30f4 a2bc
00000190: cae3 1c3e c001 a4bc f289 323e 94b5 96bd
000001a0: 181f 593d 20d0 ff3d e6c3 27be bf67 993e
000001b0: b33d 36be f60c 643e 0293 5d3e ff91 a7be
000001c0: 246b 87bd 3ee8 72be de1e 85be 8409 ca3d
000001d0: 7658 b4bd 908f e2bc 80aa 0a3e a31b 2bbe
000001e0: 6054 7b3c 428a 1e3e 8885 6ebd ce89 3ebe
000001f0: 5039 c8bd 1ec2 03be 6cdf d7bd de11 453e
00000200: 18f7 5fbe 7efd 4b3e 527c 7a3e 9edd 023e
00000210: 6603 693e 5b13 26be 0048 a73c 9381 4fbe
00000220: 6c7e b8bd 5a6e 493e 5a8f 3e3e 2092 593d
00000230: 8864 8cbe 003f e4ba 4b73 923e 0368 01be
-0.23837893 -0.101389855 0.3064212 -0.17525284 -0.0732398 0.12485853 -0.15884909 0.27396736
0.28225198 0.11776754 0.3271242 0.24243394 0.0689441 -0.1732535 0.117277056 0.15222701
-0.316032 -0.115944594 -0.16093168 -0.121616125 -0.1881369 -0.22873752 0.32573798 0.07439637
-0.028612375 0.033370733 0.20826045 0.2962965 -0.099616334 -0.2796845 0.06977686 -0.03248906
0.03682646 0.24700728 0.030347794 -0.2595162 -0.2965463 0.30247816 0.21641365 0.067980856
-0.030591935 0.14660093 -0.029144287 0.25199655 0.15046814 0.08060905 0.27724615 -0.2979625
-0.2757711 0.096101314 -0.32207572 -0.22679827 0.19648418 -0.2753204 0.24426046 -0.0076117814
-0.30339012 0.29137936 -0.24310486 -0.24224631 0.25029346 0.20836797 -0.19490156 -0.11825046
-0.08270499 -0.010303587 0.067334294 -0.29516858 -0.2413507 -0.08506128 -0.31066108 -0.13936019
0.037269235 -0.21971032 0.08976853 -0.3233099 -0.2925325 -0.06960061 -0.21182255 0.19413605
0.26015446 -0.25899586 0.25626895 -0.22183129 -0.27919194 0.21830997 -0.27560174 0.18168148
-0.3077254 -0.09735453 -0.009171456 -0.09535889 -0.26070496 -0.27032983 0.03929326 0.29569843
-0.32339633 -0.2122291 -0.06774798 -0.019891828 0.1532127 -0.020020366 0.17435434 -0.07358852
0.05300817 0.124908686 -0.16383323 0.29961964 -0.17796974 0.22270569 0.2163811 -0.32728574
-0.06612232 -0.23721406 -0.26000112 0.09865096 -0.08805935 -0.027656347 0.13541603 -0.16709761
0.015339941 0.15482429 -0.058232814 -0.18607256 -0.097765565 -0.12867019 -0.10540661 0.19245097
-0.21871603 0.19920918 0.24461487 0.12779853 0.22755203 -0.16218321 0.020420074 -0.20264272
-0.09008488 0.19671002 0.18609372 0.05311787 -0.2742045 -0.0017413795 0.28603587 -0.12637334

bias f4 [16]
00000000: 2d25 a43e b045 c4bc f4f1 a7bd 3ec1 333e
00000010: bc85 afbd 50f2 a4bc 47eb a03e d65f 53be
00000020: 507b f53d 2b71 8cbe b095 f63d 9c2a bc3d
00000030: c8aa 27bd b73b 87be f06a 86bd 10e5 f4bd
0.32059613 -0.02395901 -0.08200446 0.17554185 -0.0857043 -0.020135075 0.31429502 -0.20642027
0.119864106 -0.2743009 0.120402694 0.091878146 -0.040934354 -0.26412746 -0.065633655 -0.11957753

weight f4 [16]
00000000: 0000 803f 0000 803f 0000 803f 0000 803f
00000010: 0000 803f 0000 803f 0000 803f 0000 803f
00000020: 0000 803f 0000 803f 0000 803f 0000 803f
00000030: 0000 803f 0000 803f 0000 803f 0000 803f
1.0 1.0 1.0 1.0 1.0 1.0 1.0 1.0
1.0 1.0 1.0 1.0 1.0 1.0 1.0 1.0

bias f4 [16]
00000000: 0000 0000 0000 0000 0000 0000 0000 0000
00000010: 0000 0000 0000 0000 0000 0000 0000 0000
00000020: 0000 0000 0000 0000 0000 0000 0000 0000
00000030: 0000 0000 0000 0000 0000 0000 0000 0000
0.0 0.0 0.0 0.0 0.0 0.0 0.0 0.0
0.0 0.0 0.0 0.0 0.0 0.0 0.0 0.0

running_mean f4 [16]
00000000: 0000 0000 0000 0000 0000 0000 0000 0000
00000010: 0000 0000 0000 0000 0000 0000 0000 0000
00000020: 0000 0000 0000 0000 0000 0000 0000 0000
00000030: 0000 0000 0000 0000 0000 0000 0000 0000
0.0 0.0 0.0 0.0 0.0 0.0 0.0 0.0
0.0 0.0 0.0 0.0 0.0 0.0 0.0 0.0

running_var f4 [16]
00000000: 0000 803f 0000 803f 0000 803f 0000 803f
00000010: 0000 803f 0000 803f 0000 803f 0000 803f
00000020: 0000 803f 0000 803f 0000 803f 0000 803f
00000030: 0000 803f 0000 803f 0000 803f 0000 803f
1.0 1.0 1.0 1.0 1.0 1.0 1.0 1.0
1.0 1.0 1.0 1.0 1.0 1.0 1.0 1.0

weight f4 [16, 16, 1, 1]
00000000: 9aff 333e ecce 01be e866 c0bd 2efd 013e
00000010: 6451 57be 30f9 5cbe 94b7 653e d654 623e
00000020: e265 09be 627e 72be 2aef 5e3e b4dd 0c3e
00000030: 3882 ccbd 4026 4c3e a2f0 613e 002e 3cbb
00000040: 20de 4dbe 00a7 8c3d 80e8 55bc 384c 743e
00000050: c446 e63d fc04 c03d c0c6 4e3d 9cfe 3f3e
00000060: 400f 433d d41a 603e f05a 013d 60c1 69bc
00000070: e2ea 533e 7632 283e 1894 743e 80cb 10bb
00000080: 8848 01bd f079 22bd a870 09bd f021 77bd
00000090: e894 7c3e 5e2b 68be 6299 4ebe 2441 08be
000000a0: 12c7 0e3e d0c5 78bd ea95 603e e842 70be
000000b0: 7492 003e a06f 61bc 2019 d23c 6875 2bbe
000000c0: 94e0 febd 9cd9 e9bd f4a8 70be 8051 8cbc
000000d0: f0b1 c2bc aa47 3ebe f282 353e c03c 813d
000000e0: a0a0 493c b421 833d 3877 353d e2a8 1c3e
000000f0: 0ab5 6e3e 78f3 713e 0897 79be b880 dd3d
00000100: 8039 33bb ac38 09be 0044 0dba 5836 74be
00000110: ecc8 32be c0f9 263e a676 33be 4094 a73d
00000120: 68a7 003e d0ee 523e 442e 43be 18e4 01bd
00000130: 6053 a43d 6232 6abe 38ef 08bd b0cc d13d
00000140: 7437 bc3d 5c4c 913d f243 78be a0f7 a43d
00000150: 7845 7dbd 8ea4 51be 482b cdbd 66cd 55be
00000160: d092 87bd 040c 8ebd 0068 f1ba 047f dabd
00000170: 5878 41bd 6823 323d 0ea3 6fbe 0c6c 08be
00000180: c0cc 183e 96e4 45be c04e dfbc 50dd 7cbe
00000190: 8004 7e3b 2212 7fbe 8628 423e 200d 32bc
000001a0: d856 3f3d 0441 473e 707a 45bd e273 043e
000001b0: 90aa a5bc 4878 ddbd bcf1 95bd 6c44 0abe
000001c0: 946e f23d e492 b8bd 68dd 003d c4b1 92bd
000001d0: 10fb 8ebc a079 093c 4072 973c c837 363d
000001e0: d015 ae3d 245e 153e 18b6 1cbe 88d7 3bbd
000001f0: 1006 1a3e fae1 753e 32cc 133e 2060 94bc
00000200: 4aaa 13be 1cad 3e3e c8ec eabd 78d4 023d
00000210: b83b c9bd 6cc4 00be a0ab 75be 5854 edbd
00000220: 76d4 2dbe 4834 f3bd 80b5 19bd aa7e 75be
00000230: 4e39 123e 945f e8bd 1cd3 40be f016 d9bc
00000240: 4aeb 7d3e 6015 1abd 1834 00be ec9a e93d
00000250: 608d 653c 9ec6 353e 8408 1cbe 8cfd a53d
00000260: 801e 2e3d 880a fc3d c2cb 723e a037 c63d
00000270: 9014 ff3d ee09 7bbe f01f 123e 7437 0abe
00000280: 8681 0f3e ce97 453e 0026 653a c005 cf3b
00000290: 8aa4 14be 908e e53d 40c9 3f3c 405e 41bd
000002a0: b829 f33d b86f 56bd d680 643e ece1 033e
000002b0: 98cc 833d d66b 5b3e 5e13 663e dc52 98bd
000002c0: e0cd cabc 3aa6 07be da43 69be d072 7fbd
000002d0: 1041 4f3e 8673 28be 747f cfbd 408e dc3d
000002e0: 6c6b 32be 6cee 31be f879 bd3d 54aa 08be
000002f0: 0849 583d c09c f3bc 100b b83c 187c 20bd
00000300: c000 b3bd 54b1 56be f0ae 82bd 7897 5a3d
00000310: f033 0f3e 1abd 793e a01e 12bd ba18 57be
00000320: dc3b 0d3e 58a7 4dbe 7cf8 7d3e c837 943d
00000330: 802b 83bb b00b 70be 80ee afbc 4c16 36be
00000340: 2807 393e ec1f 50be 88b8 3cbd c43d 42be
00000350: 00c2 f8bb 6455 563e f45a a63d a048 edbd
00000360: ae84 403e e47f a93d 400c e8bc 2c1c 0b3e
00000370: 40aa 803c 6055 eebc b659 21be 7024 4d3e
00000380: 30b9 4f3d e2ac 5abe e03f 7c3d 3047 64bd
00000390: 0410 9cbd 0006 30ba b669 033e 8c0c d1bd
000003a0: 5869 4b3d b0f8 dbbc 02c7 4f3e e6b7 0d3e
000003b0: 54c4 e0bd d003 ba3c f0fd eb3c 9404 efbd
000003c0: 9613 763e d446 7cbe 04d6 d3bd 9e59 33be
000003d0: 06f5 223e 8efa 17be 0067 9dbb 182d 33be
000003e0: 7849 173e 10bb 04bd f06c 9abd 18bc 863d
000003f0: d010 b73d de9b 1bbe 7c33 81bd 2a6b 743e
0.17577973 -0.1267659 -0.09394628 0.12694237 -0.21027142 -0.21579432 0.22433311 0.22102675
-0.13417771 -0.23681024 0.21770921 0.13756448 -0.09985775 0.19936466 0.2206445 -0.0028713942
-0.20104265 0.0686779 -0.013055921 0.238572 0.11243966 0.09375951 0.05048251 0.1874947
0.047621965 0.21885234 0.031580865 -0.014267296 0.2069507 0.164255 0.23884618 -0.0022093952
-0.03156331 -0.03966707 -0.033554703 -0.0603351 0.24666178 -0.22672793 -0.20175698 -0.13306099
0.13943127 -0.060735524 0.21932188 -0.23463023 0.12555867 -0.013759524 0.025646746 -0.16744006
-0.12445179 -0.11418459 -0.2350195 -0.017128706 -0.023766488 -0.18582025 0.17725733 0.06310415
0.012306362 0.06402913 0.04430315 0.15298799 0.23311248 0.23628032 -0.2437402 0.10815567
-0.0027347505 -0.13400525 -0.0005388856 -0.23848855 -0.17459458 0.1630621 -0.1752573 0.08182573
0.1256386 0.20598912 -0.19060618 -0.031711668 0.08023715 -0.22870782 -0.03343126 0.10244119
0.09190264 0.070946425 -0.24244669 0.08055043 -0.06183383 -0.20472929 -0.10018021 -0.20879135
-0.06619799 -0.069358855 -0.0018417835 -0.106687576 -0.04723391 0.043490797 -0.23402044 -0.13322467
0.14921856 -0.1932548 -0.02725923 -0.24693799 0.0038760006 -0.24909261 0.18960771 -0.010867387
0.04671368 0.19458395 -0.04821247 0.12934831 -0.020222932 -0.108139575 -0.07321498 -0.13502663
0.11837497 -0.09012392 0.03146115 -0.07162812 -0.0174537 0.008390814 0.018487096 0.04448679
0.08500254 0.14586693 -0.15303838 -0.045859843 0.15041375 0.24011984 0.14433363 -0.018112242
-0.14420429 0.18620723 -0.11470944 0.031940907 -0.098258436 -0.12574929 -0.23991251 -0.11588353
-0.16975579 -0.11875206 -0.037526608 -0.239741 0.14279673 -0.11346355 -0.18830532 -0.026500195
0.24796787 -0.03761804 -0.12519872 0.11406502 0.014010757 0.17751548 -0.15237623 0.08105001
0.042509556 0.12306696 0.2371054 0.096785784 0.12455094 -0.24515507 0.14269996 -0.13497716
0.14014253 0.1929619 0.0008741319 0.006317824 -0.14515892 0.11208832 0.011705697 -0.047209024
0.118731916 -0.052352637 0.22314772 0.12879151 0.064355075 0.21427855 0.22468325 -0.07437679
-0.024756372 -0.13247004 -0.2277979 -0.062365353 0.20239663 -0.16450319 -0.10131732 0.107693195
-0.1742379 -0.17376107 0.09251779 -0.13346225 0.052804023 -0.02973783 0.022466213 -0.039180845
-0.087403774 -0.20966083 -0.06381023 0.053367108 0.13984656 0.24388543 -0.035673738 -0.21005526
0.13792366 -0.20083368 0.2480182 0.07237202 -0.0040029883 -0.23441958 -0.02147603 -0.17781943
0.18069136 -0.20324677 -0.04607442 -0.18968874 -0.007591486 0.20931011 0.08122817 -0.11586118
0.18800613 0.08276346 -0.028326154 0.13584965 0.015706182 -0.029093444 -0.15756878 0.20033431
0.050713718 -0.21355012 0.061584353 -0.055731952 -0.07620242 -0.0006714761 0.12833294 -0.10207471
0.04966101 -0.026851982 0.20290759 0.13839683 -0.109749466 0.022706896 0.02880761 -0.11670795
0.24030909 -0.24636394 -0.103435546 -0.17514655 0.15913782 -0.14841673 -0.0048035383 -0.1749767
0.1477412 -0.03240496 -0.075403094 0.06578845 0.089387536 -0.15196177 -0.06308648 0.23869005

bias f4 [16]
00000000: 8830 5f3d c46b 1abe 9242 23be 28ee 45be
00000010: b8a0 43bd 10b9 c8bd b8f2 d83d 608e 823c
00000020: 6862 e0bd 360f 37be b88e 27be b224 66be
00000030: 50f2 bcbc 985b d63d d8b5 ae3d 4a15 353e
0.054489642 -0.15080172 -0.15943363 -0.1932913 -0.047760695 -0.09800923 0.1059317 0.01593703
-0.109562695 -0.17876896 -0.16363037 -0.22474936 -0.023064762 0.10466689 0.08530778 0.17683902

weight f4 [16]
00000000: 0000 803f 0000 803f 0000 803f 0000 803f
00000010: 0000 803f 0000 803f 0000 803f 0000 803f
00000020: 0000 803f 0000 803f 0000 803f 0000 803f
00000030: 0000 803f 0000 803f 0000 803f 0000 803f
1.0 1.0 1.0 1.0 1.0 1.0 1.0 1.0
1.0 1.0 1.0 1.0 1.0 1.0 1.0 1.0

bias f4 [16]
00000000: 0000 0000 0000 0000 0000 0000 0000 0000
00000010: 0000 0000 0000 0000 0000 0000 0000 0000
00000020: 0000 0000 0000 0000 0000 0000 0000 0000
00000030: 0000 0000 0000 0000 0000 0000 0000 0000
0.0 0.0 0.0 0.0 0.0 0.0 0.0 0.0
0.0 0.0 0.0 0.0 0.0 0.0 0.0 0.0

running_mean f4 [16]
00000000: 0000 0000 0000 0000 0000 0000 0000 0000
00000010: 0000 0000 0000 0000 0000 0000 0000 0000
00000020: 0000 0000 0000 0000 0000 0000 0000 0000
00000030: 0000 0000 0000 0000 0000 0000 0000 0000
0.0 0.0 0.0 0.0 0.0 0.0 0.0 0.0
0.0 0.0 0.0 0.0 0.0 0.0 0.0 0.0

running_var f4 [16]
00000000: 0000 803f 0000 803f 0000 803f 0000 803f
00000010: 0000 803f 0000 803f 0000 803f 0000 803f
00000020: 0000 803f 0000 803f 0000 803f 0000 803f
00000030: 0000 803f 0000 803f 0000 803f 0000 803f
1.0 1.0 1.0 1.0 1.0 1.0 1.0 1.0
1.0 1.0 1.0 1.0 1.0 1.0 1.0 1.0

weight f4 [16, 1, 3, 3]
00000000: 05ba 813e 4bff 06be 668d b6bd 04ff 913d
00000010: 8301 2bbe b84a 1fbe d69e 50be a8d8 283d
00000020: 9091 a6be 4920 903e e0f2 49bd 6254 353e
00000030: d081 db3d f85a 00be 9807 6abe 2b38 81be
00000040: 18fc 153d 4073 763d 2e1f 10be fbb5 83be
00000050: 20ef 90be a2fe 8ebe a0ef 9dbd 0018 613d
00000060: d620 693e c7da 98be 74c1 bb3d 4073 19bd
00000070: 0508 aa3e 3afa 1f3e fbd5 65be 4437 88bd
00000080: ec3a debd 6030 3bbe 255b 9c3e 00ba 71bc
00000090: ec0b ff3d 2685 02be 4c02 95be 50a7 843d
000000a0: f265 593e 2250 593e 2a3e 113e b021 9f3d
000000b0: b896 3cbd 3c3d f13d 00d2 57be 667a dbbd
000000c0: 039f 7ebe 0623 09be e087 11bc b0ab 8abd
000000d0: 2b6d 933e 403a e23b c4b5 96bd 1c06 a4be
000000e0: 2ae4 2d3e 30db d23c 1e6f 163e 2005 e1bd
000000f0: fe7e 083e b8d0 8dbe 80fd 27be e8c6 5abe
00000100: 371a a7be 2444 91bd 3095 fbbd d3eb a43e
00000110: ca45 563e 0045 593d 0e46 a4be f8ec 683d
00000120: b0bb 80bd d339 8a3e 2e57 253e 68c5 00bd
00000130: aead 0fbe 5c40 f6bd 88a2 3fbd c8c9 4b3d
00000140: b041 cd3c 98cf 0c3d c0b6 ea3c 9ad5 493e
00000150: 236e 7bbe f0dc c7bd 924a 543e fa6e 313e
00000160: dc0d e0bd aa5b 113e 8313 1bbe a01b 25be
00000170: 3d8d a23e cb7f aa3e d7da 9fbe a75f a0be
00000180: 85e0 913e da62 753e 606a 24be 54a4 f93d
00000190: b668 113e 536d 43be 1eaf 133e 483a 7f3d
000001a0: 8079 193e a48e da3d b446 b13d 20be 8bbe
000001b0: 20e6 1abe 7f0e 853e cb4d a9be 3f5d a53e
000001c0: 4055 86be 900e 90bd d34e 09be f68c e2bd
000001d0: c086 4fbe 4cb6 ff3d 0e01 113e 60c5 93bd
000001e0: c0e4 e63c dc0f 943d 300e cf3d 3bbd 59be
000001f0: 80fe 38bd 1219 433e 6b04 3abe 7a4e 243e
00000200: 001e 2f3a 50b3 aabd deb3 61be fca9 833d
00000210: 581f 6dbe f6bd a7be fecf 61be 6ed7 42be
00000220: 43cd 953e 87ca 803e d161 893e 875d a53e
00000230: 967a afbd 55fb 9e3e 30fc c63c be79 62be
0.25337234 -0.13183324 -0.08913688 0.071287185 -0.16699795 -0.15555847 -0.20373091 0.041222245
-0.3253293 0.28149632 -0.04930389 0.1770797 0.10718119 -0.12534702 -0.2285446 -0.25238165
0.03661737 0.060168505 -0.14074394 -0.25724778 -0.28307438 -0.27928644 -0.077117205 0.05495453
0.22766432 -0.29854414 0.09167758 -0.037463427 0.33209243 0.15622798 -0.22444908 -0.06651166
-0.10851082 -0.18280172 0.30538288 -0.0147538185 0.12453446 -0.12746105 -0.29103315 0.06477225
0.21230295 0.21221974 0.1418387 0.07770097 -0.046042174 0.11779258 -0.21076202 -0.10716705
-0.24865346 -0.13392267 -0.008882493 -0.06771028 0.28794226 0.0069039166 -0.07358888 -0.3203591
0.16981569 0.025739282 0.14690825 -0.10987306 0.13329694 -0.27698302 -0.16405296 -0.21364939
-0.32637188 -0.07093075 -0.12284315 0.3221117 0.2092506 0.05304432 -0.32084697 0.056866616
-0.062857985 0.2699724 0.16146538 -0.03143826 -0.14031097 -0.12023994 -0.04678586 0.04975298
0.025055736 0.034377664 0.028651595 0.19710389 -0.24553733 -0.09758937 0.20731571 0.1732749
-0.109401435 0.14195123 -0.15144162 -0.1612382 0.3174838 0.33300623 -0.3122165 -0.31322977
0.28491607 0.2396349 -0.16056204 0.12189546 0.142001 -0.19084673 0.1442227 0.06231144
0.14987755 0.10671738 0.08656064 -0.2729349 -0.15126848 0.25987622 -0.33067164 0.32297704
-0.26236916 -0.070340276 -0.13408975 -0.110620424 -0.20266247 0.12485942 0.14160559 -0.07215381
0.028185248 0.072295874 0.10110128 -0.21263592 -0.045164585 0.19052532 -0.18165748 0.16045561
0.00066801906 -0.083349824 -0.2204127 0.06428906 -0.23156488 -0.32762116 -0.22051999 -0.19027492
0.29258165 0.25154516 0.2683244 0.32297918 -0.08568303 0.31051126 0.024290174 -0.22116753

bias f4 [16]
00000000: 666b cabd 4039 123e 7449 be3d fab3 2c3e
00000010: b5e3 813e d808 33be c0b5 9ebc d9d6 a63e
00000020: c035 e83c a0d5 f3bd b69f c7bd 6686 ebbd
00000030: 10a5 b63c 42e9 6e3e 431c a53e dc0e 9ebe
-0.09883766 0.14279652 0.09291354 0.1686553 0.2536904 -0.17483842 -0.019373775 0.3258579
0.028345942 -0.1190598 -0.09747259 -0.11500244 0.022295505 0.23331168 0.32248124 -0.30870712

weight f4 [16]
00000000: 0000 803f 0000 803f 0000 803f 0000 803f
00000010: 0000 803f 0000 803f 0000 803f 0000 803f
00000020: 0000 803f 0000 803f 0000 803f 0000 803f
00000030: 0000 803f 0000 803f 0000 803f 0000 803f
1.0 1.0 1.0 1.0 1.0 1.0 1.0 1.0
1.0 1.0 1.0 1.0 1.0 1.0 1.0 1.0

bias f4 [16]
00000000: 0000 0000 0000 0000 0000 0000 0000 0000
00000010: 0000 0000 0000 0000 0000 0000 0000 0000
00000020: 0000 0000 0000 0000 0000 0000 0000 0000
00000030: 0000 0000 0000 0000 0000 0000 0000 0000
0.0 0.0 0.0 0.0 0.0 0.0 0.0 0.0
0.0 0.0 0.0 0.0 0.0 0.0 0.0 0.0

running_mean f4 [16]
00000000: 0000 0000 0000 0000 0000 0000 0000 0000
00000010: 0000 0000 0000 0000 0000 0000 0000 0000
00000020: 0000 0000 0000 0000 0000 0000 0000 0000
00000030: 0000 0000 0000 0000 0000 0000 0000 0000
0.0 0.0 0.0 0.0 0.0 0.0 0.0 0.0
0.0 0.0 0.0 0.0 0.0 0.0 0.0 0.0

running_var f4 [16]
00000000: 0000 803f 0000 803f 0000 803f 0000 803f
00000010: 0000 803f 0000 803f 0000 803f 0000 803f
00000020: 0000 803f 0000 803f 0000 803f 0000 803f
00000030: 0000 803f 0000 803f 0000 803f 0000 803f
1.0 1.0 1.0 1.0 1.0 1.0 1.0 1.0
1.0 1.0 1.0 1.0 1.0 1.0 1.0 1.0
